nli_experiments/MFCC/mfcc_baseline_model.pt (torch, 451943 bytes, 22 tensors)

net.0.weight f4 [32, 1, 3, 3]
00000000: fb69 483b c76c 0ebe 701f 583e abf6 b63e
00000010: 65f6 a03e 54fb 9a3d 2e07 923d 8384 5dbe
00000020: dcc1 a53d 8db7 59bc a682 6dbd 6fe1 a6bd
00000030: 61eb aa3d 57d4 46be b40e 1ebe 08c6 a2be
00000040: a44f 7ebe 4085 2a3b 9824 9f3e c365 373e
00000050: a82f d13c eb1f 153c e298 4abe 08e0 50be
00000060: a3b7 733e a1d2 81be 4fe5 5dbe 8382 14be
00000070: 1491 463e 56e4 86bd 4f31 3abe 3a88 933e
00000080: 683b 423d 0155 aabe 4d71 87bd d1a8 b23e
00000090: 992a f73d 9772 303e e4ed 53be 7b6b 8ebd
000000a0: 82c3 87be 025a 99bd d835 b9be a337 a8bc
000000b0: 605a b2be 9311 0e3d 0f8b 7fbe 4265 803e
000000c0: 4e36 a7bd 5651 583e c3d7 87be c92d b1be
000000d0: 5276 8abe bdeb 673d 6060 773e eeae 6d3d
000000e0: 7e4a c63e c145 ee3d 3df5 b53c 7a67 08be
000000f0: f781 97be fbf1 713e 1536 3b3e 81ec 38bb
00000100: c315 a63d 5eec a73d 80ff 5cbe d8b5 5cbe
00000110: eb6e 793e e21c 873e e1e0 123e c581 6cbe
00000120: 1a1a d8bd 8d39 b0bd 64f2 30be 1138 b23e
00000130: 9a23 ab3e 2126 adbd a9f8 b93e 21c5 dcbc
00000140: 4934 a73e 481e a23e ef56 88bd 7095 a13e
00000150: 4724 3c3d 1846 3fbe ee7c 11bd 03ab 79be
00000160: 8f79 aabe b358 a23d 90e4 fe3d c02b 01bd
00000170: 62c7 8a3e c3b0 f8bd a71f 32be 9894 893e
00000180: d274 913d f4c1 c1bb b52c b1be 7c1c 2d3e
00000190: 0897 64bd 4596 24be 1f59 57be 87e9 4b39
000001a0: 61b6 843d 002e 1abe ecd7 8fbd 5a1f b9be
000001b0: a2d1 783d 1e86 d3bd c01b 68be e22e 1b3e
000001c0: 8bb6 91be cd6a 9f3d 08d7 84be 3093 6abe
000001d0: 544e b2be 92a6 1cbe f8ea 54be 3219 c13e
000001e0: e392 b53e efdd a03e f411 4f3e 835f 01be
000001f0: ad5a 98be 1745 613e ab50 18bd f224 993e
00000200: 21ce 7ebd d371 30be c027 8cbc 7fcc a43d
00000210: 292f a13e 7768 113e 3377 4dbd 4789 22be
00000220: 13ff eb3d 19da 1f3e f27c 613e 03e9 c23d
00000230: 213f b1bd 4d60 223e 4359 313e 5e28 4c3e
00000240: 248d 4d3e 8ef1 963e 381a 04be 3626 a5bd
00000250: 383f 293e e9dc 64bd 9b1a 773e d15a 333e
00000260: 3179 203e 573a 69be 403f 513e 8320 9c3e
00000270: ed45 33be fb63 783d 2b7a 6e3e a7ec 043e
00000280: 3d0f c73e c1f7 123e 4320 44be 3864 ae3d
00000290: 9fc2 72bd c6f5 a6be 848d 84be 19e0 b2be
000002a0: 43c7 673e 1bb9 383d b976 4a3e cf0b 4bbc
000002b0: c416 3cbe 3da9 9a3d d39f 01bd 5740 2abe
000002c0: 8225 80be 15de 7abe 1a68 88be 0d30 85be
000002d0: 9db2 8c3b 1330 713b 62ac 0bbe b5bc 05bc
000002e0: 9bd6 b1bc fbf6 95be b7c6 34be 6b08 ebbb
000002f0: ed45 d8bc 331d 8abe 34c0 2ebd f288 ad3e
00000300: 95c4 473e 7cd2 1d3d 4c51 913e 0787 92be
00000310: ea89 b33c 04fc 32be 3362 41be 1094 573e
00000320: c42a 6dbe eb90 5ebe 1c8c 793e 6a8a 36bc
00000330: 9cf1 c23e 4eda 373e b173 3d3c e64f b43d
00000340: 36a5 e43d 93d7 a4be f43d c3bb 902b a8be
00000350: beb0 a4be ca44 0dbe 1b54 4dbe f2b8 9a3e
00000360: 8344 c73d 4352 f0bd 0571 22be 63d4 933e
00000370: 10b8 953d f7fe 4dbe e3a6 c2be 6f08 8e3e
00000380: 6300 b2be a8d8 a73c c9dd 9c3e e6d7 27be
00000390: c263 933d f6b7 643d 9152 413e eb73 39be
000003a0: ef40 12be 8661 24be b69e ac3e c84e 20bd
000003b0: ddd2 85be 999e 27be 0785 213e c36f 303e
000003c0: a2e8 0c3e 2b46 e7bb 25e9 a8be fcaa 9abc
000003d0: 3411 323e 2edc eebd 5c5d 233e 6928 3a3e
000003e0: e7aa e1bb bf57 c93e 8ce7 063e 197c 27bd
000003f0: b556 92be 6730 aabd 865f 933e eb58 52be
0.0030580747 -0.13908683 0.21105742 0.35735068 0.31437984 0.07567468 0.07130276 -0.2163258
0.08093616 -0.013288391 -0.057985924 -0.08148467 0.08345676 -0.19416939 -0.15435296 -0.3179171
-0.24835068 0.0026019365 0.31082606 0.17909913 0.02553542 0.009101848 -0.19784883 -0.20397961
0.2380052 -0.2535601 -0.21669506 -0.14502911 0.1939128 -0.065865204 -0.18182872 0.2881487
0.047419935 -0.33267978 -0.06613407 0.34894422 0.12068672 0.17231213 -0.20696217 -0.06954094
-0.26516348 -0.07487871 -0.36173892 -0.020534342 -0.34834576 0.03468473 -0.2495539 0.25077254
-0.08164655 0.21124777 -0.265318 -0.34605244 -0.27043396 0.056621302 0.24157858 0.058028154
0.38728708 0.11634398 0.022211665 -0.13320723 -0.29591343 0.23627464 0.1828235 -0.002821714
0.081096195 0.0819938 -0.2158184 -0.21553743 0.24358718 0.26389223 0.14343597 -0.23096378
-0.105518535 -0.08604727 -0.17279965 0.348084 0.334256 -0.08454538 0.36322525 -0.026949467
0.32657078 0.31663728 -0.06657206 0.31559324 0.045933034 -0.18679082 -0.035519533 -0.24381642
-0.33295867 0.07927074 0.124459386 -0.031535864 0.27105242 -0.121430896 -0.17394887 0.2687118
0.0710236 -0.0059130136 -0.3460442 0.16905397 -0.055808097 -0.16072948 -0.21030091 0.00019446584
0.064800985 -0.1505661 -0.07023606 -0.36156732 0.060746796 -0.10328315 -0.22666836 0.15154603
-0.28459582 0.077840425 -0.25945306 -0.2290771 -0.34825385 -0.15297917 -0.20792758 0.37714535
0.35463628 0.31419322 0.20221692 -0.12634091 -0.2975668 0.21999012 -0.037186306 0.29911
-0.0622083 -0.1723092 -0.017108798 0.08046817 0.31481293 0.14200006 -0.050162505 -0.1587268
0.11523261 0.15610541 0.22020319 0.095171 -0.08654619 0.15857048 0.17319207 0.19937274
0.20073372 0.29481167 -0.12900627 -0.08063929 0.16528022 -0.05587474 0.24131243 0.17515112
0.15671231 -0.22776161 0.20434284 0.30493554 -0.17507143 0.060642224 0.23288791 0.129809
0.38878813 0.14352323 -0.19152932 0.08515209 -0.059267636 -0.32609385 -0.25889218 -0.34936598
0.22634606 0.045098405 0.19771852 -0.012392952 -0.1836806 0.07551811 -0.03164656 -0.16626106
-0.25028616 -0.2449878 -0.26641923 -0.26013222 0.0042937533 0.0036802336 -0.13639978 -0.008162667
-0.021708777 -0.29289994 -0.17653929 -0.0071726344 -0.02640053 -0.26975402 -0.042663768 0.33893543
0.19508584 0.03853081 0.28382337 -0.28618643 0.021916348 -0.17478949 -0.18885116 0.21052575
-0.23160845 -0.2173497 0.24369854 -0.011141399 0.38074958 0.1795437 0.0115632275 0.08804302
0.11164324 -0.3219572 -0.005958313 -0.32845736 -0.32166094 -0.13795772 -0.20051615 0.30219227
0.097298644 -0.1173444 -0.15863426 0.28872976 0.07310498 -0.20116793 -0.3801795 0.2774081
-0.3476592 0.020489052 0.3063796 -0.16390952 0.07196762 0.0558395 0.18879153 -0.18110625
-0.14282583 -0.16052827 0.33714837 -0.03913763 -0.26137438 -0.16369094 0.15773402 0.17230134
0.13760617 -0.007057925 -0.32990375 -0.01888036 0.17389375 -0.1166309 0.15953583 0.18179478
-0.006886828 0.39324757 0.13174266 -0.040889833 -0.28581777 -0.08310013 0.28783816 -0.20541732

net.0.bias f4 [32]
00000000: 2404 6e3e c8b9 2a3e 70e2 7c3e b176 2f3d
00000010: 97f3 803d 13ce 853e 4494 2abc 8509 e53c
00000020: d2e0 11bd 366b 3c3e ecd7 d6bd ec27 973e
00000030: 70d9 72be 5090 5cbd ba65 7fbe f066 1a3e
00000040: d49f 673e 9d8a febc 7158 53be 512c d43d
00000050: 9038 74be b728 153d 2cba c63d a8ac 9f3e
00000060: fa6b 5a3e 29ae 913d 412f 5dbe 0579 9cbd
00000070: 98ee 983b 4f84 f43d d0f5 493e deea 353e
0.23243767 0.16672432 0.24695754 0.042837802 0.06296461 0.26133785 -0.010411326 0.02795864
-0.035614796 0.18400273 -0.104904026 0.29522645 -0.23715758 -0.053848565 -0.2494115 0.1507833
0.22619563 -0.031071955 -0.20639206 0.10360015 -0.23849702 0.03641578 0.09703478 0.31186414
0.21330252 0.071132965 -0.21600057 -0.0764027 0.0046671145 0.11939298 0.19722676 0.17765376

net.1.weight f4 [32]
00000000: f993 6c3f 3937 7a3f 2b31 6c3f 4f4d 6f3f
00000010: 53f2 6a3f f986 863f 118c 853f 655e 6f3f
00000020: 8146 693f f3ad 8a3f 359c 8d3f d1db 8c3f
00000030: 69f2 7d3f b0e4 7d3f 7291 743f 8541 8d3f
00000040: 4683 853f 7346 853f 1978 7a3f 43ec 753f
00000050: e57b 653f e97c 893f 4f5b 5b3f 14f9 6c3f
00000060: a9ed 693f 029b 933f 448d 9a3f 2e88 833f
00000070: 6624 7c3f 3132 853f c1f2 5e3f f51d 813f
0.9241329 0.97740513 0.92262524 0.9347734 0.9177601 1.050994 1.043337 0.9350341
0.91123205 1.0834335 1.1063296 1.1004583 0.99198014 0.99177074 0.9553443 1.103562
1.0430686 1.0412124 0.97839504 0.9606363 0.89642173 1.0741245 0.856862 0.92567563
0.91378266 1.153168 1.2074361 1.0275934 0.9849304 1.0405942 0.87089163 1.0087267

net.1.bias f4 [32]
00000000: 3eff 693b 1d94 e3bc 53f6 473d 8670 9dbd
00000010: 36cd ecbb 8e03 0bbd 434b f43d 4e5f 0a3d
00000020: 59a9 a63d 0c5e 543d 7ae0 fe3c 43df adbc
00000030: 20df 4d3d 8ab2 fc3b 2712 d7bc 5476 e1bc
00000040: 89cb a43c b7b2 fcbb bb21 7b3d 30af 96bd
00000050: aa75 eabc 709d 973d b1d5 183d 4a46 d23a
00000060: 8b57 293d edc4 203b 02da c23d f8d1 4fbc
00000070: cfe0 d4bc d327 0c3e 9e52 aa3d a26c df3d
0.0035705115 -0.027780587 0.048818897 -0.07687478 -0.0072266115 -0.033938937 0.119284175 0.033782296
0.08137769 0.051847503 0.031112898 -0.021224624 0.050261617 0.007711713 -0.026253773 -0.027522244
0.020116584 -0.007711734 0.061311465 -0.07357633 -0.02862056 0.07403076 0.037313167 0.0016042676
0.041343253 0.002453144 0.09514238 -0.012684338 -0.025986103 0.13687067 0.08316539 0.10909392

net.1.running_mean f4 [32]
00000000: d95c 62c0 6f9a fb3f 1803 b4be 9b66 12bf
00000010: 0e47 b43f f2b3 1d3f 4c8d 49c0 d934 713e
00000020: b61e 74bf 1ffa d7bf 49c9 d5bf cffb 853f
00000030: 1c6b 8a3f 9387 84c0 cb21 13bf 9da9 a8bf
00000040: 481f bbbf 97fc d7bf 4a54 9d40 25c2 2340
00000050: 9607 e33f cb8e 20c0 cfbc 8b3f d179 7640
00000060: 0788 673e 9f79 0ec0 9b36 98bf f800 dcbf
00000070: 92dc 3dbe 25b1 4dc0 589f 05bf 536c 8dbe
-3.536917 1.9656504 -0.3515861 -0.57187814 1.4084184 0.616027 -3.149249 0.23555316
-0.9535936 -1.6873206 -1.6702052 1.0467471 1.0813937 -4.1415496 -0.5747344 -1.3176762
-1.4618921 -1.6873959 4.916539 2.5587246 1.773669 -2.5087154 1.0916995 3.851185
0.22610484 -2.2261732 -1.1891664 -1.7187796 -0.18541172 -3.213937 -0.52196264 -0.27621707

net.1.running_var f4 [32]
00000000: feb1 2444 2360 9542 ff99 0a44 367d 1742
00000010: 8d3f 3043 f9b9 f741 7788 0a44 ab42 ca42
00000020: 4132 1144 bf9e e343 bda0 2843 01f1 ea41
00000030: 2cf1 fa42 4485 6e44 0231 c242 48f8 5c42
00000040: b5b4 2e43 1620 e042 97a2 9144 5d0e 2f43
00000050: 266f d742 ba10 c843 35bf ae42 f630 f643
00000060: c808 f942 5afd 4b43 4959 5a42 7e81 ca42
00000070: ea83 2e42 c527 4444 20f9 a842 8a39 3743
658.7811 74.68777 554.4062 37.872276 176.24825 30.965807 554.13226 101.13021
580.7852 455.2402 168.62788 29.367678 125.47104 954.0823 97.09572 55.242462
174.70589 112.06267 1165.0809 175.0561 107.71709 400.13068 87.37345 492.3825
124.51715 203.98965 54.587193 101.252914 43.628822 784.6214 84.48657 183.22476

net.3.weight f4 [64, 32, 3, 3]
00000000: 7058 463b 5f35 513d d352 1c3c aa0f 233d
00000010: a63e e73b 37e6 20bc c579 b43c 6409 64bd
00000020: 0faf 29bb fa48 5cbd 75db 51bd 48a4 8ebd
00000030: 1a50 0dbe 0428 03be e3cc 0fbe 91a7 383d
00000040: 70cf 583d 730f 8b3d 2d49 7f3b fa74 753c
00000050: 74a5 383d 908d 823c 4276 7ebd 35cc a0bd
00000060: 14de 273d 1794 6dbd 882f fe3b abc6 d9bc
00000070: dce7 853d 1867 97bc cec7 96bd cd19 f63c
00000080: 6d01 ed3c 4a34 3fbd faf9 f3bc c2cd b3bc
00000090: 76ac 95bd 30a9 e9bc 5842 e7bc c809 0abe
000000a0: d453 dbbd e908 c4bd 3f48 5bbc 8250 9a3d
000000b0: 8221 443d 919e 06be b0a3 28bd ddaa a7bd
000000c0: d217 b1bd ae5e 1eba cc0e 41bc af9f 623c
000000d0: f1a2 c63c 838d 643d 94ce d83c 7511 903d
000000e0: 3ae4 913d 16a1 9c3c 828c 253c f96c 8dbd
000000f0: 101f 6dbd e1d8 043d 2df3 d6bc 9e77 1c3d
00000100: 75c3 79bd cc51 8ebd aaa7 52bd 44e1 67bd
00000110: cabb a1bb 6d3e aebd 8240 0abe ba6e cebd
00000120: 85d7 0abe 499b 1bbe 9106 cabd cb3e 993a
00000130: 755c 35bd 0c6e f3bc c45c 463d 27b7 e63c
00000140: f895 833d ccd1 0fbd d988 70bd fca8 c9bc
00000150: c115 47bd 86d3 01bd b05b bdbd 6c20 aa3c
00000160: 3d66 f8bc ff9f 343d 8ee1 a9bc d613 91bc
00000170: f9f9 43ba cc13 8ebd 08ef b3bd 82f8 4fbd
00000180: 9ef3 1fbd 86e4 b83c 5e60 033d d599 57bd
00000190: 13ac 87bd 8d16 a2bd ec7b 8dbd b300 b1bd
000001a0: 01f9 b5bc 3150 963d 12cf c73d 3959 bc3d
000001b0: b2e1 023d ee76 a6ba e9d7 5b3d d27e 68bc
000001c0: 557c c03c 1387 8bbc 5a59 bebb a868 e6bc
000001d0: 7c57 273c 3607 193c 8a30 db3c 1632 00bd
000001e0: 6056 163d 2122 7abd b13f 13bd fb7f 603d
000001f0: 900c a7bc 98cf 90bd 4c5f 5a3d f56e 1d3d
00000200: 2f88 133d 9a90 90bd c09e 8dbd 7bc2 c8bd
00000210: 111a 26bd be9a 7bbd 5f85 afbd 1a9b 0cbd
00000220: c44d 8dbd bbc1 85bd 15a3 b0bc a765 59bd
00000230: 63da cabd e2ce 563d 31a2 7d3d 9f52 773d
00000240: 51df 9a3d eaec 933d 66e6 253d e4b8 dabc
00000250: 2b0a d93b 563c 833c 83be 28bd adc9 85bb
00000260: 3395 6abc a31b d93d 9fb3 4cbc 71da 30bd
00000270: 29b6 a9bd bf6f 57bd fa4f f4bd 73bb f4bd
00000280: 1148 0f3d dafa 7dbc 2c4b 9f3c 05ae 523d
00000290: 4648 fa3c 1b9e e2bc e2b9 3dbd 055e a8bd
000002a0: d44b 17be 7e00 94bd 17ca 77bd 5c30 e5ba
000002b0: a941 a5bd 76ea 493c 6041 84bd e8a7 d9bd
000002c0: 01e7 84bd c962 913d ff74 5f3d cfdd 563d
000002d0: 5ba3 edbc 3302 423d 00e6 84bc 1e00 9bbd
000002e0: ccbc d9bd 1c2f 2cbd acbc 20bd e798 c6bd
000002f0: 2e88 87bd 361b b13a 3335 263d 8deb 90ba
00000300: ced4 60bb 4f0a 81bd f2ab 9fbc 6468 e13d
00000310: 2ecb d83d 6609 163d 0d46 713d 329e 16bd
00000320: 4a40 303d 6a87 30bc ae0b 22bc d205 c1bc
00000330: bf7c d4bc b133 703d fdfc 6c3d 1d2b 49bd
00000340: afee 043d 486b 10bd 1647 6abd f60c 05be
00000350: 4447 e6bd 63ad 37bc d30b 36bd 52d5 82bc
00000360: 1248 553d e295 3cbc 2c57 09bd 0739 90bd
00000370: 191b f3bc 8b60 bbbb 8ef3 193d 8159 c8bc
00000380: d332 d93a b796 aa3d 6db8 983d 9b29 9e3c
00000390: 4ac3 88bd eed3 99bd 826f 64bd 1b78 ed3c
000003a0: 210a 023d a6b2 6e3c b56a 153d 7ffe 903d
000003b0: 5587 953d 87bb cdbc afcc c43a 8584 5b3d
000003c0: 5f6c cb3d 5b71 e63d 4891 103d 24b2 12bc
000003d0: f8f5 ac3a 1c37 dbbd b27c db3b 3190 053d
000003e0: f3be ab3c 5e83 cc3c 744d 11bc f327 98bb
000003f0: 796a 81bd 43be 8dbd 9fe1 59bd 47eb 573d
0.0030265115 0.05107629 0.009541231 0.03980986 0.007057029 -0.0098205125 0.02203072 -0.055673018
-0.0025891697 -0.053780533 -0.05123468 -0.06964928 -0.13800088 -0.12808233 -0.14043002 0.04508168
0.052932203 0.06790056 0.0038953528 0.014981503 0.045079663 0.015936643 -0.0621245 -0.078514494
0.040983275 -0.058002558 0.007757131 -0.02658399 0.06538364 -0.018481776 -0.073623285 0.0300416
0.028931344 -0.046680726 -0.029782284 -0.021948699 -0.07308285 -0.028523058 -0.028229877 -0.13480294
-0.10709348 -0.09572012 -0.013383924 0.07534887 0.047883518 -0.13146426 -0.04117173 -0.081868865
-0.086471215 -0.000604133 -0.011783313 0.013832017 0.024247618 0.05579902 0.026465692 0.0703458
0.07123609 0.01911978 0.0101043 -0.069055505 -0.05789095 0.032433394 -0.026239002 0.038200013
-0.060977418 -0.06949195 -0.05142943 -0.056611314 -0.0049357163 -0.085080005 -0.1350117 -0.10079713
-0.13558777 -0.15195955 -0.09864534 0.0011691687 -0.044277627 -0.02971556 0.048428312 0.028163506
0.06425089 -0.035112187 -0.058724258 -0.02461671 -0.04860473 -0.031695865 -0.09246004 0.020767413
-0.030322189 0.044097897 -0.020737436 -0.017709654 -0.00074759085 -0.0693737 -0.08785826 -0.050774105
-0.03905069 0.022569906 0.032074325 -0.05263694 -0.066246174 -0.079144575 -0.06908402 -0.086427115
-0.02221346 0.07339514 0.097562924 0.09196705 0.03195352 -0.0012700239 0.053672705 -0.014190393
0.023496786 -0.017032182 -0.0058089914 -0.028126076 0.010213729 0.009340098 0.026756544 -0.031297766
0.036703467 -0.061067704 -0.035949413 0.05480955 -0.020391732 -0.07070845 0.05331354 0.038435895
0.036018547 -0.070588306 -0.06915045 -0.09802719 -0.040552203 -0.06142687 -0.085703604 -0.034327604
-0.06899598 -0.06531092 -0.021562139 -0.05307546 -0.09904935 0.052443393 0.061922256 0.060381528
0.075621255 0.07222922 0.04050293 -0.02669949 0.0066235266 0.016019981 -0.04119731 -0.0040828795
-0.014317798 0.106009744 -0.012493997 -0.043177072 -0.082866974 -0.052596804 -0.11929317 -0.119498156
0.034980837 -0.015501702 0.019445024 0.05143549 0.03055204 -0.027663281 -0.04631985 -0.08221058
-0.1477502 -0.072266564 -0.060495462 -0.0017485726 -0.08069164 0.012323966 -0.06457782 -0.10627729
-0.06489373 0.0709892 0.054554936 0.052457627 -0.029008558 0.04736538 -0.016222954 -0.07568382
-0.10631713 -0.042037115 -0.03924243 -0.096971326 -0.06617771 0.0013512138 0.04057808 -0.0011056528
-0.003430653 -0.06300794 -0.01949117 0.11006239 0.105856284 0.036630057 0.058904696 -0.03677196
0.04303006 -0.010774473 -0.00989048 -0.023562346 -0.02593839 0.058643047 0.057858456 -0.04911338
0.03245419 -0.03525856 -0.0571967 -0.12993225 -0.112440616 -0.011210772 -0.04444487 -0.01597086
0.052070685 -0.011510344 -0.0335304 -0.07042127 -0.029676007 -0.005718296 0.037585787 -0.024456741
0.0016570933 0.08329528 0.074570514 0.019306948 -0.066778734 -0.075111255 -0.055770405 0.028987935
0.03174794 0.01456896 0.036478717 0.07079791 0.07301203 -0.025113834 0.0015014614 0.053593177
0.099327795 0.112520896 0.0352948 -0.008953605 0.0013195863 -0.10703871 0.0066982144 0.032608215
0.020965075 0.024964985 -0.008868564 -0.004643434 -0.06319136 -0.06921055 -0.053193685 0.052714612

net.3.bias f4 [64]
00000000: d180 a1bc 7d61 cdbd c2d3 b33c ee5b 4ebd
00000010: 36bf 2bbd 0821 683d 55a4 09bb 5e8a edbc
00000020: 1fbc 973b 9545 273d 9f38 66bc 58f8 ec3c
00000030: b5fa f53b 1b49 1ebd b628 783b d9d2 92bd
00000040: 7b1f 5e3d f95e bb3c 03f4 e6bc 3d77 63bd
00000050: 0d09 f9bc 2390 973d 40fe ad3d a22c 843d
00000060: a455 463d 1b38 683c 02e3 413c 1fbe 453d
00000070: d82c 03bd 901e 5ebc 6d1d 09bc 7337 143d
00000080: 194d 0f3d c26b bfbc 1d3e 0fbd c757 ec3b
00000090: 7b34 c93d 4a0b 5b3d 6000 ff3a 51ad 20bd
000000a0: 8118 31bc 12f6 b9bd 5ad8 f83c ff00 3c3d
000000b0: d112 45bd c171 e43c ec3a 0e3c ffb5 e4bc
000000c0: aeb9 0cbd eb3f f6bc f6b3 cebb 5b97 abbc
000000d0: 6de6 293d 7147 aa3b f712 053d d759 f53c
000000e0: f402 c33d e77a 3bbd 874f 24bc d2eb e7bc
000000f0: 7809 073c fdd7 1d3c 605f 90bd de22 43bd
-0.019714745 -0.1002836 0.02195156 -0.05038064 -0.0419304 0.056672126 -0.002100249 -0.028996643
0.00463058 0.040837843 -0.014051585 0.028927013 0.0075066932 -0.038643938 0.0037866062 -0.07169122
0.05422924 0.022872435 -0.028192526 -0.055533636 -0.030399824 0.07400539 0.0849576 0.064538255
0.048421517 0.014173533 0.011833908 0.048277017 -0.03202519 -0.013557091 -0.008368832 0.036185693
0.034985635 -0.023366813 -0.034971345 0.0072126123 0.09824463 0.053477563 0.0019455068 -0.039227787
-0.010809065 -0.09080137 0.030376602 0.045899387 -0.048113648 0.027886273 0.00868104 -0.027918814
-0.034356765 -0.030059775 -0.006308074 -0.020946195 0.041479517 0.0051965048 0.03248879 0.029950066
0.09522048 -0.045771506 -0.010028726 -0.02831069 0.008242004 0.009634015 -0.07049441 -0.047640674

net.4.weight f4 [64]
00000000: 2638 743f 818c 873f c84a 763f b255 5e3f
00000010: 24c8 753f 1e4e 7d3f 6db8 7e3f 840b 863f
00000020: 3f06 7e3f eab3 803f 4827 743f 853c 853f
00000030: d990 873f b02c 8e3f 9d17 3e3f d1cb 773f
00000040: 15f8 693f fef2 813f 866c 843f be8d 863f
00000050: 41de 343f 8f0d 863f ae54 813f 47dd 1c3f
00000060: f9d3 2a3f 39c2 843f 6eb4 833f ce85 7f3f
00000070: 6a67 823f 4313 863f 59f1 833f cce3 403f
00000080: 800d 7f3f 5cb9 8a3f 1614 833f 1f46 823f
00000090: 94b1 833f 4a02 833f adbc 823f ec17 813f
000000a0: 0e41 723f d50b 7e3f 99fe 6f3f 8772 843f
000000b0: 2d58 7c3f e145 863f 0024 783f 6baa 743f
000000c0: 4564 793f f293 8b3f a24c 843f 60f1 953f
000000d0: a1ac 813f 32dd 863f 1d05 813f 3fcf 883f
000000e0: 7b8e 863f 686c 703f 1693 6e3f 71ca 663f
000000f0: adc9 833f 1610 863f 8249 8f3f 1e3f 843f
0.95398176 1.0589753 0.9620786 0.8684951 0.96008515 0.9894732 0.9950016 1.0472264
0.9922828 1.0054905 0.9537244 1.0409094 1.0591079 1.1107388 0.7425478 0.96795374
0.9139417 1.015228 1.0345619 1.0512006 0.7065163 1.0472888 1.0103967 0.6127514
0.66729695 1.0371772 1.0289438 0.99813545 1.018781 1.0474628 1.0308028 0.7534759
0.99629974 1.0837817 1.0240505 1.0177649 1.0288568 1.0235074 1.0213829 1.0085425
0.94630516 0.99236804 0.9374786 1.0347451 0.98572046 1.0490075 0.9692993 0.9557254
0.97418624 1.0904524 1.0335886 1.1714287 1.0130807 1.0536253 1.0079685 1.0688246
1.0512232 0.93915415 0.93193185 0.9015265 1.0295922 1.0473659 1.1194308 1.0331762

net.4.bias f4 [64]
00000000: 2cfc afbd c74f da3b fdb3 b7bd feb1 00be
00000010: beff 88bc 59d4 0fbe fb0d 85bd 7a39 c7bd
00000020: f2ac c9bd 25c4 da3d cc93 b1bd 3018 07be
00000030: fa08 04be 40e1 7d3d 15cf e3bd fc41 c7bc
00000040: 77c3 633d 5323 ebbd 4db4 2fbc 0d31 16be
00000050: 2988 c5bd 8d34 10bd 064f 44be bdad 12be
00000060: 40dd 1bbe 7971 b3bd bf20 a2bd 7945 133d
00000070: 7ce1 ccbd 3ae7 0bbe 670c 50be ceba d9bd
00000080: 0e3a 443d 062e f13b 6651 07ba e10d e3bd
00000090: 0037 3cbd f5a0 42bd 2b1c 68bd 9f00 83bd
000000a0: 6bb9 a5bd 8de4 1abe 2b6f ce3b fcf3 85bd
000000b0: 6e78 24bc b1b9 93be 3cd3 adbd bbab 56be
000000c0: ed2f 51bd 8825 6fbd 9076 fabd 02fe 4cbd
000000d0: 13f0 78be 79e3 683d 6619 1cbd 070c 7bbd
000000e0: 718b f0bc 44e6 2fbe c41e 993c 739e b1bd
000000f0: e136 25be 124e a0bd a5bb 4e3d b142 8b3c
-0.0859302 0.006662342 -0.08969877 -0.12567899 -0.01672351 -0.14045848 -0.06496807 -0.0972776
-0.0984744 0.10681943 -0.08670768 -0.1319282 -0.1289405 0.061982393 -0.11123482 -0.024323456
0.05560633 -0.11481347 -0.010724139 -0.14667149 -0.09645111 -0.035206366 -0.1917077 -0.14324088
-0.15221119 -0.087618776 -0.07916402 0.035954926 -0.10003945 -0.13662425 -0.20317231 -0.10631333
0.047906928 0.0073602227 -0.00051619706 -0.110866316 -0.04595089 -0.04751678 -0.056667488 -0.06396603
-0.08092006 -0.15126248 0.0062998733 -0.06540677 -0.010038478 -0.2885261 -0.084875554 -0.20963947
-0.051071096 -0.058385402 -0.12229645 -0.05004693 -0.24310331 0.05685756 -0.03811016 -0.061290767
-0.029363366 -0.17177683 0.018691428 -0.086728 -0.16134216 -0.07827391 0.05047192 0.016999574

net.4.running_mean f4 [64]
00000000: ed92 2fbf 674d 92bf c17e d1bf 5e40 4bbf
00000010: 5b14 a6bf 5ad6 aebf f12f d2bf 3ab2 72bf
00000020: 8c9d 87bf fbc6 1dbf ec29 c7be ca31 24bf
00000030: 752d 94bf 81af abbf 2b91 65be e04f 7ebf
00000040: 3421 3dbf 315c a4bf d2ed 97bf 7d66 acbf
00000050: e8bd 683e e02d 2bbf 9eaa e5be a9fb 883e
00000060: 5c37 b73f 4802 ebbf d413 37bf 4f35 89bf
00000070: 8559 c6bd 5c54 aebf 4aba 97bf 95db 6bbe
00000080: d294 98bf 1afc 67bf 2ef7 8cbf 785c 0dbe
00000090: 76b1 91bf 19c7 52bf 29ac c2bf 7bd4 6bbf
000000a0: ad35 dcbe 362e 72bf d77f 49bf b981 94bf
000000b0: ae83 5abf 4ea2 95bf 0a31 66bf a4b7 88bf
000000c0: 5e8a aebf 2b5c 94bf 3e63 d2bf d5d6 bbbf
000000d0: e22a 7dbf db85 1bbf c382 69bf 3cff 6fbf
000000e0: f719 19bf 854b 93bf 2046 52bf 31dc 2abf
000000f0: 4104 91bf c21c 82bf 89b8 8fbf 7ee3 b8bf
-0.68583566 -1.1429871 -1.6366807 -0.7939509 -1.2974962 -1.3659165 -1.642088 -0.948032
-1.0594954 -0.61631745 -0.3889917 -0.6413847 -1.1576372 -1.3412935 -0.22418658 -0.9934063
-0.7387879 -1.2840635 -1.1869452 -1.3468777 0.22728693 -0.66866875 -0.44856733 0.267545
1.4313769 -1.8360071 -0.7151463 -1.0719393 -0.09685043 -1.3619494 -1.1853726 -0.23032983
-1.1920416 -0.9061905 -1.1012933 -0.13804805 -1.1382282 -0.8233505 -1.5208789 -0.92121094
-0.430097 -0.9460176 -0.78710693 -1.1602088 -0.8535718 -1.1690156 -0.8991858 -1.0681043
-1.3635976 -1.1590627 -1.6436536 -1.4674937 -0.9889356 -0.6075112 -0.9121515 -0.9374883
-0.59805244 -1.1507422 -0.8213825 -0.66742235 -1.1329423 -1.0165026 -1.1228191 -1.4444425

net.4.running_var f4 [64]
00000000: 8d8a 5b40 3a35 f13f 71a9 d840 cde5 fe3f
00000010: 6ba0 a840 4100 8840 a15e e740 7b9d a03f
00000020: 48e0 4140 8449 d540 cdf7 d33f 9f96 ee3f
00000030: d73f 1840 ab89 6b40 ecd6 6040 453b 8440
00000040: 6b22 6e40 b45a bc3f 22ce 5440 139f 1d40
00000050: 8b85 8d40 9dc5 e83f 38f0 1640 4e16 9e40
00000060: 22ea bc40 0971 2a40 6d21 953f 4d66 1040
00000070: 85ec ca3f 2ee8 bb3f 39b6 0640 bd31 0d40
00000080: 7a8c 2841 5410 5740 9c08 3540 d36d b93f
00000090: 33a0 ad3f cb84 1f40 c044 ad40 b103 ec3f
000000a0: 76e6 6f3f 197d 953f cf4d 8f40 5ba9 1240
000000b0: 21dd b740 c244 cd3f 8db9 4640 9a0f 1b40
000000c0: ce14 6b40 701b 1c40 6aef 0840 4e16 1440
000000d0: fdcd 803f aa92 6b40 1b93 1340 135e be3f
000000e0: 53d4 1040 147a 4940 9867 be40 77dc ae40
000000f0: 694f 9b3f 6f0f 1c40 ca33 5340 b199 9640
3.4303315 1.8844368 6.770684 1.991388 5.2695823 4.250031 7.2303014 1.2548059
3.029314 6.665224 1.6559998 1.8639716 2.3788965 3.6802776 3.5131178 4.132235
3.7208507 1.471518 3.3250813 2.4628341 4.4225516 1.8185307 2.3584118 4.9402227
5.9035807 2.663149 1.1650826 2.256244 1.585343 1.4680231 2.104872 2.2061608
10.534296 3.3603716 2.8286505 1.4486641 1.3564514 2.49248 5.4146423 1.8438627
0.9371103 1.1678802 4.478248 2.2915866 5.7457433 1.6036608 3.1050751 2.4228272
3.6731448 2.4391747 2.1396127 2.3138614 1.0062863 3.6808267 2.3058536 1.4872459
2.2629592 3.148076 5.9501457 5.464412 1.2133609 2.438442 3.300036 4.706261

net.7.weight f4 [128, 64, 3, 3]
00000000: 4741 81bb cf3b 193b 9d38 393c 4d51 0fbd
00000010: c666 07ba 153c 14bc 98d1 523d 6467 643d
00000020: 2ac5 513d 98a1 143c a14d 2a3d d224 d93c
00000030: 55e4 1b3d d0cf c43c 507d 1b3d af0c 9dbd
00000040: af2f dcbc 814f 14bd 4513 8cbd 84bb a4bc
00000050: ca4a 6abd c477 4ebd bc40 96bd f3ac 90bd
00000060: aaa4 413d 2a31 773c b089 713d 9daa 32bd
00000070: 2aa1 b6bd 3b4c 7dbd b9e5 fa3b 2d00 2bbd
00000080: c68c 13bd cbd3 073e d1d1 403e 3952 363e
00000090: 9ff6 c83d 5a24 ac3d 8c7c a83d 97a3 4f3c
000000a0: 221b fd3c 8195 2fbb fc01 54bd 53a5 ccbd
000000b0: bda7 aabd f0d4 7f3d 8a45 913c 99cb 883d
000000c0: aed1 a83d ed4a 973d 0fe6 5d3d 802b f5bc
000000d0: 6d10 4cbd 542d 15bc 1389 bc3d 5b33 383d
000000e0: 9299 783d af3c 4e3c 610b 26bc 518e e9bc
000000f0: 4037 19bd 083b 35bb ac32 fabc ecb7 a73d
00000100: 66fa 553c 5982 273d 5613 1a3d 66ab a0b9
00000110: 2ff5 043c 87bb 02bd 9f3e 04bd 6c8e 59bc
00000120: 3a7a b6bd 5ab1 a9bd e5f7 64bd f8d2 52bd
00000130: 46d2 9bbd 4514 e7bb 897e 383d 6e7f e8bc
00000140: e681 803c 9aa5 933d 9576 d03d 9dfc cf3d
00000150: 933e 5cbc 6b0d f23c daa7 d2bc 5791 833c
00000160: edaa e6bb f662 3ebb 996f 1a3d b802 aa3d
00000170: 17f8 ce3c dcf1 383d 121b b73c 016f 08bc
00000180: afb9 773c 7eaa 7c3d 1f5c 363d 6e72 82bd
00000190: 7390 f7bc e403 abbd 2dc9 38bd fea1 99bd
000001a0: d8be 66bd f459 ee3d 7350 b73d 93ae e33d
000001b0: 0ce8 753d c5f4 bf3c 5190 d73c b07c 3bbb
000001c0: f89b 9dbc ff39 3ebb 065c ecbd 09ab 2fbd
000001d0: fc98 54bd c755 1f3d f047 d43b a6bd 763d
000001e0: 88d6 773d 69c2 d23d 5eda db3d ba95 af3d
000001f0: ec8f 9a3d fd2d c73d d37d 87bb 1d5f d83c
00000200: cf46 6ebc 6b56 c13c 519e b13c 1a3c fdbb
00000210: fe25 623d 4ac0 853c af13 9e3d 00e5 33bd
00000220: 6932 93bc 1ef0 39bc 8252 d83c 9afe 8b3c
00000230: 36c9 183d ee01 b13c 2fdd 82bb b68d 63bc
00000240: 1a56 063d 2aa9 5f3d 1ff8 433d 554d 77bd
00000250: 4876 34bd f54e 0cbc 0ee3 d9bc 58fa 623c
00000260: c4ab 0bbd bfd4 1f3e 900f 183e 07ea 093e
00000270: 42d9 903d d378 973d ea0e 4f3d 0ab0 ba3d
00000280: 6659 373d 2639 3e3d 6740 9d3d 84c2 1e3d
00000290: 797b af3d 1723 823c 32be 903d bb68 e33c
000002a0: 0995 893d feb2 743c de20 d73c fb82 9c3d
000002b0: d929 d83d 2791 d53d 2cbf c63d 7d6c dc3d
000002c0: 2ed5 7c3d 8aff acbd 7c2c 30bd 3b1c 4ebd
000002d0: bd7e ad3b f4dc 493d aa16 013c 2942 273b
000002e0: b288 373d 3d4e 8d3c 6736 213d a2dc 343d
000002f0: e355 9f3d 53e5 ec3b 8829 4f3c 6a67 eebc
00000300: a1d9 0e3e f736 a03d 54be dc3d 8651 dd3d
00000310: c177 ab3d daf1 fd3d 46ec e3bd 2f03 0cbe
00000320: 4fc2 0fbe 9545 afbd fec7 08bd 491c 92bd
00000330: 8ace 19bc 7df6 21bd 4e9b 5cbc fe97 bb3b
00000340: d384 813c 9549 573d 4612 b4bc 9ead d13c
00000350: a561 013c 9d50 6a3d 90bc 08bb 4308 d73c
00000360: 0545 da3c 14e5 d63b ced4 bebb 0012 03bc
00000370: 047d 0a3d 0280 853d 0c85 6a3d d765 d63c
00000380: 8738 8e3d b1fc 48be 3d78 38be 7bc4 1abe
00000390: 61d7 b6bd 06f9 d9bd 4bfd 8bbd eed8 19be
000003a0: 1068 dcbd f5f2 16be 53fe 97bd d4c9 0cbd
000003b0: 3d08 93bd 78af a13c fb5c 0f3d 85fb 603d
000003c0: b8cd 45bd e0a8 babc 72e4 39bd c546 3abd
000003d0: 397f 2bbd 4ec7 043a 050e 2e3c 81c2 bcbc
000003e0: f1c2 84bb 4601 513d a88a 4e3d 2a50 af3d
000003f0: 91f5 02bb e3e9 e9bc 9121 dd3c 57e8 c13d
-0.0039445492 0.0023381596 0.011305002 -0.034989644 -0.0005165156 -0.009047528 0.051469415 0.055762663
0.05121342 0.00907173 0.04157794 0.026506815 0.03805955 0.024024874 0.037961304 -0.07668435
-0.026878206 -0.036208633 -0.06839613 -0.020108946 -0.05720023 -0.050407186 -0.07336566 -0.070642374
0.047276177 0.015087405 0.0589692 -0.04361974 -0.08917458 -0.061840277 0.0076567796 -0.041748215
-0.036022924 0.13264386 0.18830039 0.17804803 0.09812664 0.08405371 0.082268804 0.01267328
0.030896727 -0.0026791992 -0.051759705 -0.099924706 -0.08332775 0.062458932 0.017733354 0.06679458
0.08243118 0.07387338 0.05417448 -0.029927969 -0.049820352 -0.009105045 0.09205832 0.04497085
0.06069333 0.01258771 -0.010134549 -0.028510245 -0.037406206 -0.0027653594 -0.03054174 0.08189377
0.013060188 0.040895794 0.037616096 -0.0003064528 0.008115097 -0.03191712 -0.032286283 -0.013278585
-0.089100316 -0.0828578 -0.055900473 -0.051470727 -0.07608466 -0.007051977 0.04504255 -0.028381076
0.01568694 0.0720932 0.10178868 0.10155604 -0.013442653 0.029547414 -0.025714803 0.016060514
-0.007039419 -0.0029050685 0.037704084 0.083013 0.025264783 0.04515253 0.022351775 -0.008327247
0.015119954 0.06168603 0.044521447 -0.06369482 -0.030220246 -0.083503515 -0.04511373 -0.07501601
-0.056334347 0.11638251 0.08950891 0.11117282 0.06003575 0.023432145 0.026313933 -0.0028608255
-0.01923941 -0.0029026268 -0.115409896 -0.04288772 -0.05190371 0.038900163 0.006478302 0.060239457
0.060507327 0.10290987 0.107350096 0.0857348 0.07546982 0.097255684 -0.0041348725 0.026412541
-0.014543249 0.023600778 0.021681936 -0.007728112 0.055212013 0.016327042 0.07718598 -0.043919563
-0.017968373 -0.011348752 0.02640653 0.017089177 0.037301265 0.021607365 -0.0039936523 -0.013888767
0.032796957 0.054604687 0.04784405 -0.060376484 -0.044058114 -0.008563747 -0.026597526 0.013853632
-0.034099355 0.156085 0.14849687 0.1346818 0.07072689 0.07396092 0.050551333 0.09115608
0.04476299 0.04644122 0.076782994 0.038759723 0.085684724 0.015885873 0.07067527 0.0277599
0.06717879 0.014935253 0.02626079 0.0764217 0.10554857 0.10428076 0.09704432 0.1076288
0.06172674 -0.08447178 -0.043011174 -0.05031989 0.0052946494 0.049282983 0.007878939 0.0025521612
0.044808097 0.017249221 0.039358523 0.044155724 0.077800535 0.007229486 0.012644179 -0.029102046
0.13950206 0.07822984 0.1077849 0.10806565 0.083724506 0.12399645 -0.1112905 -0.1367309
-0.14038967 -0.085581936 -0.033393852 -0.07134301 -0.009387622 -0.03954171 -0.013464762 0.005724906
0.015810406 0.052560408 -0.02198137 0.025595482 0.007896815 0.057205785 -0.0020864345 0.026249057
0.02664424 0.00655807 -0.005823708 -0.007999897 0.03381063 0.06518556 0.05725579 0.026171608
0.069443755 -0.19627644 -0.18014617 -0.15114014 -0.08927799 -0.106432006 -0.06835421 -0.15024158
-0.10762036 -0.14741118 -0.07421555 -0.034372166 -0.07179306 0.01973699 0.035000782 0.054927368
-0.04829189 -0.022785604 -0.045383878 -0.045477647 -0.041869376 0.0005065099 0.01062346 -0.023041965
-0.004051559 0.051026605 0.0504252 0.08560212 -0.0019982795 -0.028553909 0.026993545 0.094681434

net.7.bias f4 [128]
00000000: b502 183d 9654 ae3b 8418 26bd a4c4 d33c
00000010: cabf 0b3c 5cfc 8d3d 63fa 903c 8fb8 83bd
00000020: b1f9 883d cc60 df3d e4d1 0bbd 8935 3abd
00000030: 293e 303d 95d7 5cbd a193 113c 1886 0a3b
00000040: 8a5d 063d 5c74 04bd 0230 113d 8868 81bc
00000050: 3c79 afbd 12dc 41bb a013 a23d 8a1c 6f3d
00000060: ed73 33bd 0683 f03c 40ea 0f3d 7218 4e3d
00000070: f93a 83bc c852 6bbb 3f27 a7bc e6f9 04bd
00000080: 297b b9bc ba95 d1bc 7aa8 54bd d3a1 153d
00000090: 04d9 c93c dd14 e3bc a55e 283c c30c c43c
000000a0: 13d4 213d 3232 83bd 7f52 333d 2ba1 38bc
000000b0: 59d7 a43c def7 e6bd a3b1 23bd 3e5b 343d
000000c0: 830e 0dbd d42b 20bd fca3 4b3d 7a79 1cbc
000000d0: 5d1c 87bd fe72 2bbc c323 7cbd 473e e23a
000000e0: 3795 4dbd 8718 c8bd 09a8 e73c 64d1 dcbc
000000f0: 6993 0ebc 202e 023c 2cc5 d8bc f728 d53a
00000100: 10cb 29bc b998 533c baa4 333d a8c5 18bc
00000110: ce94 05bd 6ff2 4dbd 6544 673d 8fe1 423c
00000120: 854e b9bc da27 18bc ffcd 06bc a77f 883d
00000130: 98bc 2fbc 6458 9abc 99c8 273c 6a02 b9bb
00000140: 043e d93c 0d51 eabb efb2 79bd 09dc 863c
00000150: dbbe a7bc 0b31 0fbd 0c88 dfbc 81fa 74bc
00000160: 7bea 3e3d 257f 7bbd 889d db3a ffaf 4dbd
00000170: 38c0 e1bc 2f81 04bd 6da7 0b3d 51bc 453c
00000180: e921 f73c 3f74 a23d ba78 113c ba60 673c
00000190: bec0 673d 382e 02bd 6d10 f5bc 2e45 55bc
000001a0: b1b2 d9bc 43bd 34bc 8f53 7d3d 80df fa3b
000001b0: 23a1 803b ca00 24ba 16d0 f2bc 9fa0 bbbc
000001c0: 7f28 ab3c 0e39 adbc c58d dabb 995c 9b3c
000001d0: f6f6 b9bc 83a6 8cbd a1ba cd3d 87c0 ce39
000001e0: 5a25 b83d 57ab f8bb 9108 353d a8a8 563d
000001f0: 5837 a1bd 4b52 44bc 0c36 4b3d 9c9a dabd
0.037111957 0.005320142 -0.040550724 0.025850601 0.008529613 0.06932899 0.017697519 -0.06431686
0.0668825 0.109071344 -0.034135714 -0.04546121 0.04302803 -0.053916533 0.008885295 0.0021137055
0.03280405 -0.03233753 0.035446174 -0.015796915 -0.085680455 -0.0029580635 0.079138994 0.058376826
-0.043811727 0.029359352 0.035135508 0.05031628 -0.016019331 -0.0035907496 -0.020404456 -0.032464884
-0.022641735 -0.02558409 -0.051918484 0.03653128 0.024639614 -0.02771991 0.010276471 0.023931867
0.03950889 -0.06406058 0.043779846 -0.011268894 0.020122217 -0.11277746 -0.03996433 0.044032328
-0.034437668 -0.039104298 0.049716935 -0.009550447 -0.06597207 -0.010464428 -0.061557543 0.0017260992
-0.05019113 -0.09770303 0.028278368 -0.026955314 -0.0087021375 0.007945567 -0.026461206 0.0016262819
-0.010363355 0.01291483 0.043858267 -0.009324469 -0.032612614 -0.05028003 0.05646171 0.011894598
-0.022620449 -0.009286845 -0.008227824 0.06664973 -0.010726117 -0.018840976 0.010240697 -0.0056460397
0.02651883 -0.0071507753 -0.06096166 0.016462343 -0.02047675 -0.03495888 -0.027286552 -0.014952303
0.046610337 -0.06140055 0.0016755322 -0.05021667 -0.027557477 -0.03234976 0.034095217 0.012068824
0.030167537 0.079323284 0.008878881 0.0141221825 0.056580298 -0.03178236 -0.029915059 -0.013016982
-0.026574465 -0.011031452 0.061847266 0.007656038 0.003925459 -0.0006256221 -0.029640239 -0.022903739
0.020893333 -0.02114537 -0.0066697323 0.018965052 -0.022700768 -0.06867697 0.10045362 0.00039434826
0.08991499 -0.0075887847 0.044197623 0.052406937 -0.07871884 -0.011982511 0.04961209 -0.10674021

net.8.weight f4 [128]
00000000: 7d14 9e3f 3376 a63f 5b9f 9a3f 8fe2 9a3f
00000010: e18d a23f 99a0 9b3f 8ff1 a13f 0164 a13f
00000020: 9ed3 a53f 14a7 9b3f 59c6 993f 1916 9f3f
00000030: 6bcc a43f 42cc 9e3f 88a9 9b3f 1ac7 a63f
00000040: 6192 9f3f 1de2 a43f 54dd 963f 1a6c 9a3f
00000050: 2f9f a13f cd0f 9a3f 9599 9b3f 3fa2 a43f
00000060: 87d6 913f 153c 9c3f 9810 a03f 29d0 9d3f
00000070: e05a 993f 43ac 9b3f ff50 9a3f bfd2 9f3f
00000080: 3616 993f 7be4 983f c817 9a3f 1604 a93f
00000090: 5848 9e3f 025c 9c3f 81d1 9a3f 476e 9c3f
000000a0: 50c9 9c3f cb45 993f 65e2 9a3f faeb 993f
000000b0: 8d51 973f 7387 a53f 1fb6 9b3f 0fe0 a43f
000000c0: 4947 9d3f 55f8 9f3f 8707 9a3f 92ed a73f
000000d0: 8303 9a3f b9cb 9a3f 8156 953f 4b65 9c3f
000000e0: 9a0a 9b3f 3f27 983f a367 9e3f f8ed 9c3f
000000f0: 4a36 a63f 419c 9d3f 8151 9b3f 987a 9d3f
00000100: addb a33f abe2 973f f2e5 9f3f a5ba a03f
00000110: 3d1a 9c3f b0ab 9b3f 1ac7 a73f d0cf 993f
00000120: fee4 9e3f 5a84 9f3f 9302 a13f c347 a43f
00000130: bf90 963f 272f 973f 35c0 9b3f aa1a 9f3f
00000140: 1c4b 993f 9149 9d3f db87 9a3f 50fa 9a3f
00000150: a0b0 9d3f 5fef 9c3f f813 9a3f 4f9e 993f
00000160: 781f ad3f 4703 9f3f a1f1 963f a77b 9d3f
00000170: f728 ab3f 1147 a73f 1353 9c3f c395 9a3f
00000180: 679b 9f3f 2a2f a23f 1fdd 9b3f 244e 993f
00000190: 5178 a93f 7cb4 a93f 85c2 963f 281a 993f
000001a0: 36c7 993f a715 a63f 94f0 9b3f 2688 9b3f
000001b0: a105 9d3f d8f2 9b3f de68 993f 00f2 9e3f
000001c0: 6add 9b3f f9b2 973f df31 993f 7ed6 a03f
000001d0: dbbf 993f 888c 9d3f bf44 a03f 5910 a43f
000001e0: 676b 9f3f 09f6 9a3f 826f 9d3f 6f4e a23f
000001f0: ad43 9e3f e2d5 9d3f e339 9a3f d92b a13f
1.2350003 1.3004822 1.2079881 1.210039 1.2699548 1.2158386 1.2651843 1.2608644
1.2955205 1.2160363 1.2013656 1.2428619 1.2874883 1.2406085 1.2161112 1.3029511
1.2466546 1.2881504 1.1786294 1.206424 1.2626704 1.2036072 1.2156245 1.2862014
1.1393594 1.2205836 1.2505064 1.232915 1.1980858 1.2161945 1.2055968 1.248619
1.1959903 1.1944727 1.2038507 1.3204372 1.2365828 1.2215579 1.2095186 1.2221154
1.2248936 1.1974424 1.210034 1.2025139 1.1821762 1.2931961 1.2164954 1.2880877
1.228738 1.249766 1.2033547 1.3119376 1.2032322 1.2093421 1.1667024 1.2218412
1.211261 1.1886977 1.2375377 1.2260122 1.2985318 1.231331 1.2134248 1.2303038
1.2801415 1.1866049 1.2492049 1.2556959 1.2195507 1.216177 1.3107636 1.2016544
1.2413633 1.2462265 1.257891 1.28344 1.1762923 1.1811265 1.2168032 1.2430012
1.1976047 1.2288076 1.207271 1.2107639 1.2319527 1.226055 1.2037344 1.2001437
1.3525229 1.2422875 1.1792489 1.2303361 1.3371876 1.3068563 1.2212852 1.2076954
1.24693 1.2670643 1.2176856 1.1976972 1.3239843 1.3258204 1.1778113 1.1961107
1.2013919 1.2975358 1.2182794 1.2150924 1.2267343 1.2183485 1.1985128 1.2417603
1.2176945 1.1851493 1.1968344 1.2565458 1.2011675 1.2308512 1.252098 1.2817489
1.2454652 1.2106334 1.2299654 1.2680186 1.2364403 1.2330897 1.2048916 1.2591506

net.8.bias f4 [128]
00000000: 960f 1bba 92c8 8d3d 3e7e 813d 8970 703d
00000010: 04aa 863c 6d6b 843d 1a78 ff3c c565 c03d
00000020: 1dd7 1f3d 2d20 103d 69df 86bb 9102 383c
00000030: 0644 043d 47e3 223c 9338 8bbb efdb 743d
00000040: 637e 80bc 72ee 3e3d a7ea 153c bcc9 4cbc
00000050: 7467 833d eb19 863b 1490 5a3d 2310 363c
00000060: c3d9 393d 4c7d c63c 75d5 783d 8e48 10bd
00000070: 2148 f23c b70d 8bbc 5f58 a13d b962 e2ba
00000080: 5f80 383d 532d 843d 9ca5 b1bc d154 ab3d
00000090: b634 6e3d 33da 4f3d 1cb7 fc3b dfe8 683d
000000a0: e18d b23c 47ea fb3c 9647 f0bb 1ccd 793d
000000b0: 54cd 6a3a bbd5 713d 5683 903d a56b 883c
000000c0: 535f d73c 480e 223d cc91 883c 5a02 51bd
000000d0: 845f f03c d99c 263d 2d10 a03b 44b3 1b3d
000000e0: c4f8 e3bc 68ce cb3c dee6 d03b 406b 913d
000000f0: 04d6 a73d 6b0c 103c 9f7c e43c 976d fb3c
00000100: 0922 04bb b843 f2bc 76bd d53b 8cb8 abbd
00000110: 3e6f a73c 66c3 d53b e63e 683d 3504 293d
00000120: 5ae5 ed3c 6089 603d c640 b03c b8a3 293d
00000130: 0e81 4fbc 2358 7e3d 38c2 f5bb fdff 833c
00000140: ffe0 d2bc 94a2 c43c 31e4 a63c 23ac 573d
00000150: 1fc1 96bb d6d2 423d ee0e d53c 12a8 853d
00000160: 0450 893d 4c60 8a3b 700c a7ba eb14 a13b
00000170: bd6a a63d 1d4e 04bc 9c63 0f3d ba0e 363d
00000180: 89d0 0c3d 6a5d ad3c cdd5 153d 26e8 c53c
00000190: abda b03d e452 813d 04fe babb 70e1 1c3d
000001a0: b017 8a3d 9276 f63c bceb 273c 70ff 893d
000001b0: 63fe 0abd 2328 11bc f339 3b3c b61e 4c3c
000001c0: 7989 943c bc37 b13b 2273 673d 7e42 3e3c
000001d0: c01c 393d f23a 72bc 7319 09bc 03d2 693d
000001e0: e5fa 933c 268c 65bb fe33 79bc 7ecb 903d
000001f0: 56b3 1a3d 21bc ed3c 9d97 a13c 63ac b13d
-0.0005915103 0.069230214 0.06322907 0.058701072 0.016438492 0.06465802 0.031185199 0.09394411
0.039023507 0.035186935 -0.004115988 0.011231081 0.032291435 0.009941882 -0.0042486875 0.059780058
-0.015685266 0.046614118 0.009150184 -0.012499269 0.064162165 0.004092445 0.05336006 0.011112246
0.04537369 0.024229668 0.060750443 -0.035225444 0.02957541 -0.016974313 0.078781836 -0.0017271853
0.0450443 0.064539574 -0.021685414 0.08365787 0.058155738 0.0507452 0.007712258 0.05686271
0.021796169 0.03075136 -0.0073327525 0.060986623 0.0008956988 0.05904172 0.070563 0.016652891
0.026290571 0.0395644 0.016671084 -0.051027633 0.02934242 0.040676925 0.004884741 0.038012758
-0.027828582 0.024878696 0.0063751778 0.071005344 0.08195117 0.008792023 0.027891455 0.030691905
-0.0020161888 -0.029573306 0.0065228296 -0.08384809 0.020438787 0.0065235374 0.05670061 0.041263778
0.029040027 0.05481851 0.021515261 0.0414159 -0.012665046 0.062095772 -0.0074999593 0.016113276
-0.025742052 0.024003305 0.020372482 0.052654397 -0.0046006585 0.04756435 0.026008096 0.065261975
0.06704715 0.0042229053 -0.0012744796 0.0049158237 0.081258275 -0.008075264 0.035007104 0.044447638
0.034378562 0.021162707 0.03658085 0.024158549 0.086354576 0.06314638 -0.0057065506 0.03830093
0.06742799 0.030085836 0.010249075 0.06738174 -0.03393401 -0.008859667 0.01142739 0.012458494
0.018131958 0.0054082554 0.056506284 0.011612533 0.045193434 -0.0147845615 -0.008367884 0.05708505
0.018063972 -0.0035026162 -0.01521015 0.07070063 0.037768684 0.02902037 0.019725615 0.08675458

net.8.running_mean f4 [128]
00000000: 2f3d dd3e eb9c b9bd f94d 50bf 73bd 263e
00000010: 0fa8 2a3f 94c0 6fbe 9851 22bd 7674 2fbe
00000020: 82b5 943d b90f fb3d c804 81be ba56 95be
00000030: 370b 193e 06ea 1fbf 6d0c 573f 43fe 683e
00000040: 5aaa 8b3d 5ccb c63e 5c36 c63e 2a8e 89bf
00000050: 6f24 a4be 919f 993f da4b 863d caa4 5b3c
00000060: 908a 943e d304 1abf 7186 043e 2e20 a3bd
00000070: b70f 90bf 66ae 2fbd 0208 983d 9a3a 05bf
00000080: 1075 a7bf 2269 bbbe 6abb a0bf c3cd b93e
00000090: fab0 fe3d fb1b 8dbf 56fc 21be 2521 f03e
000000a0: 0543 54be c29a 293d 5812 56be a765 e4be
000000b0: abfa da3e f29f 35bf 0541 a9be c054 d93d
000000c0: faed 7ebf ca1c a83e 9466 a6be 73ca c6bc
000000d0: 2914 91bf 47cb 33bf 5e33 f83d 0030 063f
000000e0: 9b19 babe 2fc8 3fbf 97aa 3f3f 114d 2ebf
000000f0: 4726 6abf ea48 0a3f 90ed 08bf ef0a e4be
00000100: 2873 cbbe a9c9 fe3d 7648 86be 6811 9dbf
00000110: ca4b 53bf b9aa eebe a0e5 4c3e 3904 293f
00000120: eb1f a2bf 6ba3 1cbf f400 9f3e 1559 c33e
00000130: d9b3 19bf 1ce3 1dbe bb63 2c3e 2b85 1cbf
00000140: e8e0 6e3e fc51 993f 72c2 5bbf cd08 8a3f
00000150: 0992 b53e 3a23 2cbf 97a5 25bf f4d1 96be
00000160: c6d6 5ebe 36ca 13bf 66a2 92be 9c95 3e3f
00000170: 4fda 5bbf a81a 403e 4e10 51be 8d9c 87bf
00000180: 6e4b dc3e 55d2 bc3f e63b 9a3f 8c54 81bf
00000190: e55d 62bf 77ca 0cbf f493 563e c960 083f
000001a0: cb5f fbbe cee5 763e b8dd 903e 4c94 64be
000001b0: cce0 78bf 42b4 933d c130 67be 3ac9 683f
000001c0: 8b3c 69bf 0417 9dbe f38d 3cbe 5a5d ce3e
000001d0: 8800 5a3b 0ec6 96bf f4f3 093d ca3e 4fbe
000001e0: cd40 5dbe 99b8 48be bf46 84be 2c61 343e
000001f0: b134 c43e d41b 3dbf 34b8 14bf 6715 65be
0.43210742 -0.09063133 -0.81368977 0.16283207 0.6666269 -0.23413306 -0.039628595 -0.1713427
0.07261182 0.12258858 -0.2519896 -0.2916773 0.14945684 -0.62466466 0.84003335 0.22753243
0.06819601 0.38827026 0.38713348 -1.074651 -0.32059047 1.2001821 0.06557436 0.013405988
0.29011965 -0.6016361 0.1294191 -0.07965122 -1.1254796 -0.04289093 0.07423402 -0.52042544
-1.30826 -0.36603647 -1.2557194 0.36289796 0.12436099 -1.1024164 -0.15818915 0.46900287
-0.20728691 0.041407354 -0.20905435 -0.44608805 0.4276937 -0.7094718 -0.33057418 0.10611868
-0.99581873 0.32834464 -0.32500136 -0.024266457 -1.1334277 -0.7023205 0.121191725 0.5241699
-0.3634766 -0.7491483 0.74869674 -0.68086344 -0.91464657 0.5401751 -0.5348749 -0.44539592
-0.39736295 0.12440807 -0.26227158 -1.2270937 -0.8253752 -0.46614626 0.2000947 0.6602207
-1.266599 -0.61186856 0.31055415 0.38153902 -0.6004005 -0.15418667 0.16834919 -0.611407
0.23327982 1.1978145 -0.85843575 1.0783936 0.35462978 -0.6724125 -0.64705795 -0.29457057
-0.21761617 -0.57730424 -0.28639525 0.74447036 -0.8587999 0.18760169 -0.20416376 -1.059465
0.43026298 1.4751688 1.204953 -1.0103927 -0.8842452 -0.54996437 0.20954877 0.5327268
-0.49096522 0.24111101 0.28294158 -0.22322196 -0.9721801 0.07212116 -0.22577192 0.9093205
-0.91108006 -0.30681622 -0.18413524 0.40305597 0.0033264477 -1.1779191 0.033679917 -0.20238796
-0.21606751 -0.19601668 -0.25835225 0.17615193 0.3832145 -0.7387059 -0.5809357 -0.22371446

net.8.running_var f4 [128]
00000000: 1276 343e a86c 0e3e 29d1 f53d 14f8 663e
00000010: 705f 193e 8b78 603e b35a 4e3e fe39 513e
00000020: c47b 413e b55d 303e da87 163e 2b2f 2e3e
00000030: 7b80 303e 438e 383e 391f 563e 5a3d 3f3e
00000040: 838a 103e 27b9 5c3e b1b5 2c3e a9d9 8f3e
00000050: 457e 173e 6d85 7a3e b86a 6b3e ca9e 393e
00000060: 9923 6f3e c0a1 213e a898 1d3e 13a2 2e3e
00000070: 95f9 8f3e 1632 2b3e 2573 ea3d 2e16 913e
00000080: 70b5 523e f85b 913e e251 913e dfe9 ee3d
00000090: 345d 563e 6013 773e de24 4e3e 1e54 463e
000000a0: 431b 383e 46a6 5d3e e0a6 2e3e ae7a 653e
000000b0: 0500 643e 2588 333e fcab 913e bdf2 283e
000000c0: 1b75 3d3e 7a70 653e ec1f 3e3e 0cb5 0d3e
000000d0: 64b8 3c3e ecfb 1c3e 0b3a 083e 1a51 673e
000000e0: f817 843e 3a01 083e 0978 213e 6e92 353e
000000f0: 43fb 7d3e 20e6 223e 4c81 0a3e 7e10 483e
00000100: f240 1e3e dc7d 313e a685 143e 5198 8c3e
00000110: a788 503e 4ad8 243e 1f6f 373e 5f1d 863e
00000120: c1a8 693e dd1a 853e 82e3 1e3e e0ff 033e
00000130: 7864 3a3e e772 f33d f10a 2a3e 3548 103e
00000140: 559e 2f3e cd16 563e 6122 693e 7f63 993e
00000150: 07b4 003e e8ee 253e 3ba6 1e3e 3898 843e
00000160: 46e9 5a3e 3775 1a3e 6359 483e 2501 4c3e
00000170: 2083 913e 1d0e 843e 52f0 2d3e e91a 5d3e
00000180: 6e29 323e 4543 633e efc0 a13e f371 4d3e
00000190: 7e23 873e c513 693e 839c 103e 0ca4 943e
000001a0: 527a fc3d a738 6b3e 8a3c 053e d888 0c3e
000001b0: 745b 903e bda4 103e 5bcf 263e b917 833e
000001c0: 6aa2 1a3e 1233 4e3e 1d7b 8a3e 09e4 483e
000001d0: a754 163e 6e05 8b3e 7e24 453e 4afa a53e
000001e0: dc3f 203e c8d5 2f3e 0a63 2c3e 0b14 263e
000001f0: 2f10 253e ecae 2f3e f307 3b3e 864d 073e
0.17623165 0.13908637 0.12002785 0.22555572 0.14977813 0.21920983 0.20151787 0.20432279
0.18894869 0.17223246 0.14700261 0.1701018 0.17236511 0.18023019 0.20910348 0.18675748
0.14115338 0.21555005 0.16866185 0.2809575 0.14794262 0.2446496 0.22989929 0.1812698
0.23353423 0.15784359 0.15390265 0.17054014 0.28120103 0.16718325 0.11447743 0.28337234
0.20577025 0.2839048 0.28382784 0.11665701 0.20933992 0.24128485 0.20131251 0.19368026
0.1797915 0.2164546 0.17055845 0.2241008 0.22265632 0.17532404 0.28451526 0.16498847
0.18501703 0.22406188 0.18566865 0.13838595 0.18429714 0.15330476 0.13303392 0.22589532
0.25799537 0.13281718 0.15768446 0.1773164 0.2480288 0.15908098 0.13525885 0.19537541
0.15454462 0.17333168 0.14504108 0.27459958 0.20364629 0.16098133 0.17913483 0.26194283
0.22818281 0.25997058 0.15516475 0.12890577 0.18202388 0.1188715 0.16605736 0.14090045
0.17150243 0.20907135 0.22767021 0.29958722 0.12568675 0.16204417 0.154931 0.25897384
0.21378049 0.15083776 0.19565348 0.19922312 0.28420353 0.25792018 0.16986206 0.21592297
0.17398617 0.2219363 0.3159251 0.20063 0.26394266 0.22761448 0.14122204 0.29031408
0.12328018 0.2297083 0.13011375 0.13724077 0.28194773 0.14125343 0.16290037 0.25604036
0.15101019 0.2013667 0.27047053 0.19618239 0.1468073 0.2715258 0.19252202 0.32417518
0.1564936 0.17171395 0.16834655 0.16218583 0.16119455 0.17156571 0.18264751 0.13213167
