webapp/model/MFCC/MFCC/mfcc_baseline_model.pt (torch, 451943 bytes, 22 tensors)

net.0.weight f4 [32, 1, 3, 3]
-0.21343909 -0.03632092 0.31726688 0.2939874 -0.18845199 0.24791865 0.36627597 0.007423466
0.028375128 -0.0773116 0.31140846 -0.030260378 0.2606218 -0.02572261 0.12746812 0.13439028
-0.037534308 -0.23993014 -0.16115469 -0.06434482 -0.13297847 -0.04667418 -0.021883547 -0.17226043
-0.1706355 -0.19196959 -0.2757604 0.31207722 0.034617644 0.4356918 -0.10085925 0.08177406
0.041052196 0.041171513 -0.05649959 -0.049675286 -0.20456666 0.17318915 0.014930925 -0.3461824
0.16707474 0.275621 -0.3135664 -0.22269008 -0.20213936 0.09220886 0.0637321 0.06828479
-0.28045508 0.08030189 -0.038373645 -0.225859 -0.36444515 0.0022314342 0.20400819 0.019904315
0.025736451 0.15056974 -0.3067941 0.21665081 0.26701 -0.10565446 0.17626564 -0.23851666
-0.21617669 0.2943671 0.028552206 0.099562414 -0.35011742 -0.074050985 -0.25054765 -0.2240056
-0.008364438 0.033342768 0.028742963 0.15441146 -0.077248394 0.014200556 0.11167169 0.18415327
0.18414165 0.028557867 -0.19258586 -0.17773795 0.35494527 0.1981802 -0.05163721 -0.2756638
0.24388403 0.21907526 -0.29951006 0.076237835 0.30536672 0.044847827 0.3330521 0.11043004
-0.25365996 -0.3481764 -0.12441772 -0.32201174 0.20246972 0.2314753 0.18094055 -0.021192973
-0.26555124 -0.2806303 -0.2750665 -0.08474962 0.30124965 -0.009196545 -0.32001856 0.14311776
0.092392415 -0.19449137 -0.2161001 -0.27374044 -0.3202455 -0.0264929 0.019154279 0.348319
-0.26466677 0.008956068 -0.18220852 0.2352591 -0.013409014 -0.15555932 0.0031335421 -0.035513543
-0.1521684 -0.24633388 -0.1372054 -0.28721842 0.20841993 0.11884857 0.11832601 0.059389163
0.31255192 0.35585743 -0.089529395 0.31836665 -0.17188875 -0.3011767 0.08608484 -0.27373657
0.23545718 -0.06685513 0.22402626 -0.084307 -0.14365537 0.057401616 -0.19102427 0.11748935
-0.20830554 -0.12654562 -0.25833055 0.22112554 0.263661 -0.10506155 0.22842228 0.20680909
0.0004548435 0.44247633 0.1277654 0.26575223 -0.15653165 -0.19272153 0.24165021 0.20923977
0.06970349 0.36880416 0.013796728 0.053032953 -0.039116282 0.16717386 -0.004558885 0.19870287
0.39764792 -0.15275535 0.19202171 0.092401214 -0.28202546 -0.15044288 0.2600092 -0.29838812
-0.2836032 0.2526621 0.070792116 -0.26023397 -0.10000721 -0.30661875 -0.19851291 -0.22637908
-0.18204601 -0.22985868 -0.2532831 -0.29305312 0.03631468 -0.28139287 0.4343441 0.15442774
0.17974031 -0.04640764 0.11982184 -0.18348671 -0.022097748 0.005706414 0.0012893304 -0.10661687
-0.24430698 -0.05221263 -0.26185367 0.2353366 -0.074430965 -0.41285473 -0.20985885 0.14127864
-0.055570867 0.28189826 -0.21738788 0.31417176 -0.258033 0.014849775 0.17971832 -0.29945558
0.34159878 -0.31405908 -0.019847466 0.25899673 -0.17296684 0.11350963 -0.28854367 -0.36522385
-0.27059925 0.20256247 0.15483513 -0.11934533 0.15259042 -0.05827457 0.2957882 0.044401795
-0.28597823 0.072329395 -0.3723831 0.101378076 -0.014248086 -0.055449724 0.0074672285 0.24554315
0.19043149 -0.0797975 0.22774129 -0.36418632 -0.25315443 0.25272343 -0.22953089 0.32176816
00000000: c78f 5abe 3fc5 14bd ce70 a23e 8485 963e
00000010: 8ff9 40be 63de 7d3e 8688 bb3e 8c40 f33b
00000020: f572 e83c 8b55 9ebd ee70 9f3e 9de4 f7bc
00000030: 3870 853e 39b8 d2bc 0187 023e 9b9d 093e
00000040: 93bd 19bd 3fb0 75be bc05 25be 38c7 83bd
00000050: 822b 08be 6d2d 3fbd 2045 b3bc 0a65 30be
00000060: 13bb 2ebe ad93 44be 7830 8dbe 96c8 9f3e
00000070: 3bcb 0d3d ff12 df3e 4b8f cebd 2979 a73d
00000080: 5926 283d 76a3 283d 1d6c 67bd 5078 4bbd
00000090: ec79 51be 7f58 313e d7a0 743c d23e b1be
000000a0: a415 2b3e 321e 8d3e c68b a0be de08 64be
000000b0: 9ffd 4ebe 00d8 bc3d fa85 823d e5d8 8b3d
000000c0: cf97 8fbe 5175 a43d af2d 1dbd 9547 67be
000000d0: 8e98 babe 413d 123b 86e7 503e 600e a33c
000000e0: 40d5 d23c f42e 1a3e 1e14 9dbe b6d9 5d3e
000000f0: 89b5 883e 5e61 d8bd fb7e 343e b63d 74be
00000100: 6c5d 5dbe 49b7 963e 51e6 e93c 61e7 cb3d
00000110: 9742 b3be 0ba8 97bd c847 80be b961 65be
00000120: ff0a 09bc 6d92 083d 5d76 eb3c 0a1e 1e3e
00000130: 6834 9ebd 73a9 683c 21b4 e43d ad92 3c3e
00000140: a18f 3c3e 30f2 e93c 3a35 45be f000 36be
00000150: 63bb b53e c0ef 4a3e 8a81 53bd ce23 8dbe
00000160: bcbc 793e 4455 603e 6259 99be 9522 9c3d
00000170: 0759 9c3e 5bb2 373d ce85 aa3e 2529 e23d
00000180: b8df 81be 2d44 b2be b8ce febd b9de a4be
00000190: 3954 4f3e dc07 6d3e 7b48 393e e39c adbc
000001a0: 55f6 87be c6ae 8fbe 84d5 8cbe 3591 adbd
000001b0: 653d 9a3e 1bad 16bc 79d9 a3be 768d 123e
000001c0: 3c38 bd3d bf28 47be 5849 5dbe b527 8cbe
000001d0: 38f7 a3be a307 d9bc 6fe9 9c3c de56 b23e
000001e0: 6782 87be 79bc 123c df94 3abe c3e7 703e
000001f0: 7bb1 5bbc f14a 1fbe 1d5c 4d3b a676 11bd
00000200: 08d2 1bbe f33e 7cbe 937f 0cbe 4b0e 93be
00000210: 096c 553e e166 f33d e854 f23d 0d42 733d
00000220: ce06 a03e f232 b63e 305b b7bd f400 a33e
00000230: 9b03 30be d533 9abe 404d b03d 3327 8cbe
00000240: b01b 713e 58eb 88bd 2467 653e 26a9 acbd
00000250: 651a 13be f51d 6b3d de9b 43be 429e f03d
00000260: 0c4e 55be 2d95 01be e743 84be bc6e 623e
00000270: 93fe 863e 832a d7bd 88e7 693e c3c5 533e
00000280: 1078 ee39 428c e23e efd4 023e ad10 883e
00000290: d549 20be cb58 45be 2773 773e f342 563e
000002a0: b4c0 8e3d e6d3 bc3e ac0b 623c 1539 593d
000002b0: 6538 20bd a02f 2b3e b362 95bb c478 4b3e
000002c0: 8298 cb3e e66b 1cbe 57a1 443e d93c bd3d
000002d0: a465 90be b30d 1abe ed1f 853e 54c6 98be
000002e0: 7034 91be ed5c 813e 75fb 903d 633d 85be
000002f0: 95d0 ccbd 22fd 9cbe f846 4bbe ebcf 67be
00000300: 456a 3abe 1360 6bbe 53ae 81be 0f0b 96be
00000310: b4be 143d ba12 90be 5a62 de3e 4e22 1e3e
00000320: d80d 383e f015 3ebd 2765 f53d f1e3 3bbe
00000330: 5606 b5bc dffc ba3b c0fe a83a f259 dabd
00000340: 9c2b 7abe e9dc 55bd af11 86be 14fc 703e
00000350: 436f 98bd b261 d3be 3de5 56be 59ab 103e
00000360: 479e 63bd f854 903e ee9a 5ebe 1fdb a03e
00000370: e71c 84be 784c 733c 1408 383e 3e52 99be
00000380: 09e6 ae3e 5acc a0be 2797 a2bc 389b 843e
00000390: 381e 31be bd77 e83d ffbb 93be 9ffe babe
000003a0: fc8b 8abe 896c 4f3e 1a8d 1e3e 536b f4bd
000003b0: aa40 1c3e 51b1 6ebd 8d71 973e a8de 353d
000003c0: bd6b 92be 6f21 943d ffa8 bebe 4f9f cf3d
000003d0: ce70 69bc 401f 63bd a7af f43b aa6f 7b3e
000003e0: 7900 433e df6c a3bd 0335 693e a176 babe
000003f0: 759d 81be f764 813e 250a 6bbe ccbe a43e

net.0.bias f4 [32]
0.21168897 -0.12718527 -0.07853713 -0.13977854 -0.34410644 0.22396062 0.23249508 0.17183308
0.054454524 0.0039592404 -0.23998086 0.25057766 -0.24875012 0.0533199 -0.26807657 0.068351075
-0.19828369 -0.08633389 -0.017560523 -0.0636603 0.32543093 0.105185285 0.013051447 -0.05517337
-0.2104404 0.1503176 -0.050779637 -0.27535203 0.1893047 0.084220804 0.08549842 -0.14078753
00000000: fec4 583e db3c 02be 13d8 a0bd 1b22 0fbe
00000010: b82e b0be ef55 653e 3113 6e3e 03f5 2f3e
00000020: b50b 5f3d 84bc 813b 8bbd 75be b74b 803e
00000030: 5ab8 7ebe f865 5a3d 5541 89be a6fb 8b3d
00000040: e10a 4bbe d3cf b0bd 16db 8fbc 5560 82bd
00000050: e29e a63e 626b d73d bdd5 553c 79fd 61bd
00000060: b07d 57be dbec 193e 4ffe 4fbd f1fa 8cbe
00000070: 17d9 413e f57b ac3d cc19 af3d 9b2a 10be

net.1.weight f4 [32]
1.043947 1.0454823 0.9288581 1.0603644 1.0706041 1.0402187 1.0562125 0.9464806
1.1998314 0.9138053 1.093909 1.039548 1.1034153 0.9132024 0.9613448 1.0887507
0.91673255 0.93273985 1.0101721 1.0090826 0.92846113 0.8791643 1.0109279 0.84216225
1.0020818 0.9447776 1.0733181 1.0574273 0.89727587 0.99221134 0.94701135 1.0080664
00000000: 0ea0 853f 5dd2 853f a5c9 6d3f 05ba 873f
00000010: 8e09 893f e325 853f f931 873f 8d4c 723f
00000020: 1394 993f 25ef 693f 3605 8c3f e90f 853f
00000030: b63c 8d3f a2c7 693f b11a 763f 2f5c 8b3f
00000040: fcae 6a3f 0ac8 6e3f 524d 813f 9e29 813f
00000050: a1af 6d3f e910 613f 1666 813f f297 573f
00000060: 3744 803f f2dc 713f 7d62 893f c759 873f
00000070: dfb3 653f 9001 7e3f 566f 723f 5208 813f

net.1.bias f4 [32]
0.009450501 -0.1102574 -0.06963329 0.06399694 0.14838779 -0.14372762 0.015340549 0.038901575
0.043255746 -0.12120823 0.012029695 0.05220243 0.0861918 -0.071042694 -0.029195728 0.106634125
-0.14804521 0.025324356 -0.076224215 -0.054049775 -0.030340832 0.07794068 0.16832452 -0.15108667
-0.10964818 -0.032034166 -0.024548855 0.017570367 0.10000863 -0.018938554 0.049078997 -0.07072761
00000000: 46d6 1a3c a2ce e1bd e69b 8ebd d410 833d
00000010: f8f2 173e 552d 13be ed56 7b3c 4257 1f3d
00000020: f02c 313d 053c f8bd 3318 453c 37d2 553d
00000030: 5485 b03d d57e 91bd e12b efbc fe62 da3d
00000040: 2a99 17be 0675 cf3c 711b 9cbd 4c63 5dbd
00000050: 568d f8bc 5d9f 9f3d 435d 2c3e 77b6 1abe
00000060: 3a8f e0bd 4236 03bd ae1a c9bc bbef 8f3c
00000070: 53d1 cc3d 0725 9bbc 0f07 493d a3d9 90bd

net.1.running_mean f4 [32]
-1.5696067 -2.7569947 2.4816422 -3.8124106 -0.9030232 0.12773949 -1.0526266 1.7760782
-0.4490672 -0.7107265 -3.0302598 0.051049363 -0.5422776 0.50080556 3.7426226 -3.663185
-1.2760104 -0.9306923 -2.1769648 -3.551438 2.5716567 6.3456526 -2.9766264 2.1193402
-0.504336 1.957621 -2.3478913 -2.5043046 -2.0469973 -2.9135656 -0.9654104 -3.0786088
00000000: dfe8 c8bf 9a72 30c0 3ad3 1e40 89fe 73c0
00000010: 872c 67bf 24ce 023e 78bc 86bf 8856 e33f
00000020: 23ec e5be 2cf2 35bf c7ef 41c0 2319 513d
00000030: b4d2 0abf cb34 003f 2187 6f40 9f71 6ac0
00000040: 4f54 a3bf da41 6ebf 6453 0bc0 c34a 63c0
00000050: 0696 2440 960f cb40 0c81 3ec0 45a3 0740
00000060: 2a1c 01bf 5393 fa3f da43 16c0 8746 20c0
00000070: 0102 03c0 dc77 3ac0 2325 77bf ed07 45c0

net.1.running_var f4 [32]
118.439064 202.12608 165.75026 726.62616 89.98428 141.13342 75.4185 66.36725
16.664799 483.20438 451.22113 58.578568 79.50535 429.80023 650.6268 669.2892
239.45818 197.73915 107.6076 395.55313 131.51802 883.0959 745.5863 185.37558
10.252371 112.89933 207.41406 271.24133 686.0626 386.92075 275.7047 468.87674
00000000: cde0 ec42 4720 4a43 11c0 2543 13a8 3544
00000010: f4f7 b342 2822 0d43 46d6 9642 08bc 8442
00000020: 8251 8541 299a f143 4e9c e143 7450 6a42
00000030: bd02 9f42 6ee6 d643 1da8 2244 8252 2744
00000040: 4b75 6f43 39bd 4543 1737 d742 cdc6 c543
00000050: 9d84 0343 23c6 5c44 8665 3a44 2660 3943
00000060: b609 2441 75cc e142 006a 4f43 e49e 8743
00000070: 0284 2b44 db75 c143 34da 8943 3970 ea43

net.3.weight f4 [64, 32, 3, 3]
0.037823033 -0.010925779 -0.016373692 0.00217934 0.043025244 0.045694176 0.022821173 0.05543123
0.06717231 0.06975184 0.04802197 -0.063451804 0.05170539 -0.024783688 0.012869706 -0.008473504
-0.031648636 0.022570727 -0.13943249 -0.09981431 -0.215129 -0.05036915 -0.031467892 -0.056535996
-0.00977517 -0.02856957 -0.09321825 -0.105003595 -0.16422097 -0.18415046 -0.05039872 0.06576845
0.052118085 0.059173796 0.06018626 -0.004571655 -0.067556486 -0.013960277 0.032937415 -0.06143852
-0.036234707 -0.021106437 -0.026850576 0.0064366357 -0.025471903 -0.05243813 -0.020037655 -0.06710158
0.015787262 0.03178803 -0.015230478 0.05820823 -0.017949875 -0.03910331 -0.11455475 -0.12667654
-0.054604024 -0.0013535033 0.05219263 0.054359734 0.009771648 0.021427883 0.035383236 -0.09051761
-0.07777803 -0.08951444 0.06255147 0.05351796 0.054932427 -0.032674026 0.031445254 0.05093189
0.04095363 -0.036108006 -0.009380031 0.004528441 0.02572016 0.06747883 0.021940576 0.038324505
0.058332827 -0.054274127 -0.013926373 -0.05095619 -0.009294812 -0.02359109 0.034820735 -0.11101193
-0.03379933 -0.124811694 0.13043977 0.16226806 0.022953345 -0.07081212 -0.083507925 -0.07630973
-0.072826214 -0.06550488 0.013624579 -0.18366233 -0.0475099 -0.09610743 -0.019129917 0.010373397
0.02466924 -0.06111934 0.019872673 0.046412528 -0.123426 -0.16305386 -0.11392263 -0.050990835
0.023590656 -0.006773452 0.0030516721 -0.025630679 -0.02770905 -0.00920029 0.021817805 -0.006465653
0.036660507 -0.04604137 -0.044661835 -0.105386265 -0.1308226 -0.09981188 -0.0036426436 -0.03632877
-0.08519245 -0.09332731 -0.033540223 -0.04991864 -0.020365959 -0.12001463 -0.084925644 -0.11563273
-0.17558019 -0.18516271 -0.0050257253 0.043032646 0.041824393 0.043566134 0.05750826 0.06732469
-0.078046076 -0.020343943 -0.04307951 0.0246849 -0.009227305 0.03727375 0.016854057 -0.05629103
0.02837154 -0.0291817 -0.03242932 0.022397306 -0.03691292 -0.02559572 -0.04897339 -0.053768672
-0.051088713 -0.021619612 -0.10357824 0.0116238315 -0.027313406 -0.02867666 0.051594127 0.03083847
0.018498307 0.050309245 0.08484163 -0.013103677 -0.02304096 -0.039885044 0.070268035 0.038794223
-0.01976192 0.10332783 0.06326328 0.04567183 -0.0015237369 -0.02838748 -0.04293079 0.009259729
-0.0030667128 0.02072381 -0.0040892307 -0.020212272 0.05188461 -0.1037279 -0.08959408 -0.097128466
-0.04701108 -0.0861859 -0.05010063 -0.04664612 0.04358101 0.040564254 -0.14727367 -0.15610099
-0.13616808 0.018226232 -0.03452038 -0.00029822663 0.06300927 -0.039188053 0.069216035 -0.08272556
-0.045972355 -0.08170598 -0.06307625 0.0038128218 -0.11034972 0.012862137 -0.057225127 -0.08445756
-0.003177458 0.041450202 -0.051020604 -0.016653627 0.036151085 -0.0522048 -0.03742821 -0.021371074
0.012304781 -0.05798565 -0.09254274 -0.08207984 0.024013491 0.014109357 0.020412931 0.01195348
0.017244313 -0.015184366 0.06975655 0.076837294 -0.09864167 0.0053743036 -0.0021991204 -0.020232169
0.04997096 0.048300453 0.011501957 0.013274535 -0.04289993 -0.03241215 0.016477806 0.05378445
0.015002017 0.0253327 -0.04998012 -0.05489431 0.05198806 0.018956307 0.0070962906 0.051559035
00000000: 53ec 1a3d 0a02 33bc 1f22 86bc 42d3 0e3b
00000010: 3d3b 303d d129 3b3d 78f3 ba3c dc0b 633d
00000020: a391 893d 0dda 8e3d afb2 443d 05f3 81bd
00000030: 08c9 533d 2907 cbbc 76db 523c 74d4 0abc
00000040: 00a2 01bd 3fe6 b83c 64c7 0ebe 726b ccbd
00000050: c74a 5cbe e24f 4ebd 7ae4 00bd 4a92 67bd
00000060: 0928 20bc bb0a eabc 36e9 bebd 200c d7bd
00000070: 8b29 28be f091 3cbe e36e 4ebd 9cb1 863d
00000080: c679 553d 3960 723d de85 763d d2cd 95bb
00000090: 0e5b 8abd a5b9 64bc 62e9 063d f5a6 7bbd
000000a0: d86a 14bd 68e7 acbc bdf5 dbbc 6aea d23b
000000b0: 74aa d0bc 5dc9 56bd 0226 a4bc 8e6c 89bd
000000c0: 4a54 813c 2a34 023d 4189 79bc c16b 6e3d
000000d0: 9e0b 93bc cb2a 20bd ae9b eabd 7fb7 01be
000000e0: 78a8 5fbd 0968 b1ba f0c7 553d 50a8 5e3d
000000f0: 4319 203c 8789 af3c 03ee 103d 4c61 b9bd
00000100: 164a 9fbd 5953 b7bd fc1a 803d a635 5b3d
00000110: d300 613d 33d5 05bd bdcc 003d f59d 503d
00000120: febe 273d fde5 13bd b4ae 19bc 5163 943b
00000130: 16b3 d23c 5732 8a3d b9bc b33c 28fa 1c3d
00000140: 67ee 6e3d 8c4e 5ebd 712b 64bc 70b7 50bd
00000150: 4449 18bc 1a42 c1bc 30a0 0e3d 395a e3bd
00000160: 2b71 0abd 469d ffbd 0192 053e 9929 263e
00000170: a708 bc3c f205 91bd 3406 abbd 4748 9cbd
00000180: e925 95bd 6c27 86bd a039 5f3c fa11 3cbe
00000190: be99 42bd f9d3 c4bd 58b6 9cbc 2ef5 293c
000001a0: 2517 ca3c 4658 7abd 04cc a23c 101b 3e3d
000001b0: c5c6 fcbd 97f7 26be 4550 e9bd c4db 50bd
000001c0: 3141 c13c d5f3 ddbb 90fe 473b 6ef7 d1bc
000001d0: 17fe e2bc d0bc 16bc 41bb b23c d4dd d3bb
000001e0: 5429 163d e095 3cbd 54ef 36bd c1d4 d7bd
000001f0: 5cf6 05be 2c6a ccbd 6bb9 6ebb 7acd 14bd
00000200: 6179 aebd 6422 bfbd 7961 09bd 7d77 4cbd
00000210: 83d6 a6bc 3bca f5bd 7fed adbd dad0 ecbd
00000220: 4bcb 33be 4b9b 3dbe d7ae a4bb 0043 303d
00000230: 0e50 2b3d 6772 323d c88d 6b3d 87e1 893d
00000240: 9fd6 9fbd 57a8 a6bc 2474 30bd fd37 ca3c
00000250: 1f2e 17bc 5cac 183d 8511 8a3c 6c91 66bd
00000260: 6f6b e83c 760e efbc 9bd4 04bd 8e7a b73c
00000270: 0132 17bd 1eae d1bc 5298 48bd 8a3c 5cbd
00000280: 6642 51bd 9d1b b1bc d420 d4bd e271 3e3c
00000290: 5dc0 dfbc 51eb eabc 5d54 533d f6a0 fc3c
000002a0: c389 973c 1111 4e3d 73c1 ad3d ceb0 56bc
000002b0: 65c0 bcbc 805e 23bd b0e8 8f3d b1e6 1e3d
000002c0: c0e3 a1bc 8b9d d33d 2e90 813d 6312 3b3d
000002d0: 20b8 c7ba dc8c e8bc 32d8 2fbd 1eb6 173c
000002e0: e7fa 48bb fbc4 a93c f4fe 85bb 3594 a5bc
000002f0: f584 543d 4b6f d4bd 1a7d b7bd 4aeb c6bd
00000300: b18e 40bd 3c82 b0bd 5136 4dbd 0010 3fbd
00000310: 0082 323d b426 263d e9ce 16be f0d8 1fbe
00000320: a56f 0bbe 2e4f 953c 3e65 0dbd 4d5b 9cb9
00000330: 010b 813d a783 20bd 23c1 8d3d 056c a9bd
00000340: 824d 3cbd 7755 a7bd 1f2e 81bd 89e0 793b
00000350: 09ff e1bd b6bb 523c e564 6abd 16f8 acbd
00000360: e63c 50bb b0c7 293d fbfa 50bd 306d 88bc
00000370: 2913 143d b3d4 55bd 534e 19bd 6412 afbc
00000380: fe99 493c 5c82 6dbd 0c87 bdbd 7a19 a8bd
00000390: f1b7 c43c ef2a 673c 0539 a73c 87d8 433c
000003a0: f243 8d3c d9c7 78bc 86dc 8e3d df5c 9d3d
000003b0: a504 cabd ed1a b03b 1e1f 10bb efbd a5bc
000003c0: 59ae 4c3d b2d6 453d b472 3c3c 6f7d 593c
000003d0: d6b7 2fbd 9ac2 04bd 77fc 863c 154d 5c3d
000003e0: 05cb 753c 8686 cf3c f4b7 4cbd dbd8 60bd
000003f0: 6ff1 543d 424a 9b3c 0088 e83b 912f 533d

net.3.bias f4 [64]
0.022454469 -0.029605072 0.055757657 -0.01850164 0.033706646 0.006629927 0.036276646 -0.04841851
0.083592676 0.0069561126 0.01671022 0.019245964 0.017593592 0.026952224 0.0517824 0.020393409
-0.026400067 0.033089887 0.08878805 -0.03539816 0.0026777613 0.047280658 0.02482845 0.017905172
0.04695146 0.076527536 0.047898058 0.009841415 0.04456841 0.005725726 -0.00240241 0.003097096
-0.09616997 0.026452767 0.013574143 -0.027362728 0.068707794 0.06864466 0.084830925 -0.0655114
-0.049443066 -0.028564151 -0.043082777 0.06552636 -0.018408414 0.038200893 -0.07576466 0.015158967
-0.044764258 -0.045932192 -0.0034360932 -0.0099669695 0.040449973 -0.027991798 0.13603257 0.025628382
-0.008254847 -0.010012777 -0.0075485604 -0.0064669624 -0.060654882 0.025408547 -0.017720256 0.028993718
00000000: 6ff2 b73c 5686 f2bc 2462 643d c090 97bc
00000010: fb0f 0a3d dc3f d93b d296 143d 7d52 46bd
00000020: a332 ab3d 1af0 e33b dfe3 883c b6a9 9d3c
00000030: 7020 903c e9ca dc3c c819 543d 1410 a73c
00000040: f444 d8bc 4389 073d 82d6 b53d a9fd 10bd
00000050: 617d 2f3b 5da9 413d 0965 cb3c dead 923c
00000060: 2d50 403d 78ba 9c3d c130 443d e33d 213c
00000070: 5d8d 363d df9e bb3b c071 1dbb a6f8 4a3b
00000080: c3f4 c4bd 79b3 d83c 1566 5e3c cd27 e0bc
00000090: acb6 8c3d 9295 8c3d d6bb ad3d d72a 86bd
000000a0: d084 4abd 5eff e9bc 9177 30bd af32 863d
000000b0: 3ecd 96bc 8a78 1c3d 812a 9bbd 515d 783c
000000c0: ba5a 37bd 6523 3cbd 1430 61bb 804c 23bc
000000d0: dfae 253d 0e4f e5bc 1f4c 0b3e 9df2 d13c
000000e0: 563f 07bc a10c 24bc ea59 f7bb d0e8 d3bb
000000f0: 4171 78bd 9625 d03c 122a 91bc 3c84 ed3c

net.4.weight f4 [64]
1.0193129 0.71860147 1.0011859 0.9784145 1.0517027 0.982267 1.0472172 1.0384833
0.9774539 1.0707241 1.1003206 0.9290328 0.9377605 1.0006905 0.9562538 1.051972
0.97441995 0.97255284 1.0266837 1.0741236 1.0482527 0.9366979 1.006008 1.0217597
0.97137827 0.94313526 1.096972 1.0519737 0.96264154 1.028036 1.0724342 0.9337247
1.1082714 1.0647804 0.8003904 0.8777623 1.0566391 1.0555013 0.98987323 0.9376887
0.67785245 0.90503097 1.0156385 0.6639247 0.82873964 0.968704 1.0754918 1.0440892
1.0279367 1.0379437 1.0418942 1.0629001 0.99907386 1.0408574 1.0490807 0.9731602
1.0549166 1.0176711 0.84578604 0.979579 0.97699535 0.9712847 0.89219207 1.0499464
00000000: d878 823f 44f6 373f dc26 803f 5f79 7a3f
00000010: 329e 863f da75 7b3f 370b 863f 05ed 843f
00000020: 6b3a 7a3f 7d0d 893f 4ed7 8c3f 18d5 6d3f
00000030: 1211 703f a016 803f 0dcd 743f 05a7 863f
00000040: 9673 793f 39f9 783f 5f6a 833f e27c 893f
00000050: 252d 863f 6fcb 6f3f dfc4 803f 06c9 823f
00000060: 3fac 783f 5071 713f 9469 8c3f 13a7 863f
00000070: ad6f 763f af96 833f 8645 893f 9508 6f3f
00000080: d6db 8d3f b94a 883f 63e6 4c3f 08b5 603f
00000090: f33f 873f ab1a 873f 5568 7d3f 5e0c 703f
000000a0: bd87 2d3f 1cb0 673f 7100 823f f8f6 293f
000000b0: 4828 543f fcfc 773f b7a9 893f b7a4 853f
000000c0: 6e93 833f 57db 843f ca5c 853f 1c0d 883f
000000d0: 4ec3 7f3f d13a 853f 4748 863f 0721 793f
000000e0: 8207 873f 0c43 823f 6f85 583f b0c5 7a3f
000000f0: 5e1c 7a3f 1da6 783f b366 643f a564 863f

net.4.bias f4 [64]
-0.04181132 -0.15198892 -0.1115839 0.00536335 -0.10014093 -0.06754568 -0.08973288 -0.10461032
-0.20377801 -0.06790766 0.07666224 0.02369621 -0.17172286 -0.21984872 -0.041740052 0.038453728
-0.14402361 0.011569959 -0.038784426 0.0450183 -0.0643744 0.1014241 -0.003212039 -0.059424587
-0.024781005 -0.13856849 -0.11407725 -0.095603764 -0.15563744 -0.024155287 -0.12420537 -0.24063201
0.03726263 -0.06867264 -0.12149205 -0.10021808 -0.01432376 -0.0295828 -0.21922441 -0.014114762
-0.13139594 0.095215924 -0.004168201 -0.14316536 -0.15297383 0.1405131 0.028714484 0.031492077
0.0458577 -0.037774406 0.012343139 0.033417262 -0.07130953 0.06342553 -0.16608976 -0.1641409
-0.2781951 -0.019610882 -0.21059546 -0.16122656 -0.004615741 0.008097682 -0.012096538 -0.015746912
00000000: 5942 2bbd fca2 1bbe 1a86 e4bd 0abf af3b
00000010: b016 cdbd 6455 8abd dfc5 b7bd ef3d d6bd
00000020: 2fab 50be 2c13 8bbd 1801 9d3d 8e1e c23c
00000030: 1ed8 2fbe 0620 61be 9ef7 2abd a881 1d3d
00000040: ed7a 13be ed8f 3d3c 6bdc 1ebd 1c65 383d
00000050: bad6 83bd 70b7 cf3d 1281 52bb 3267 73bd
00000060: 8901 cbbc e6e4 0dbe 55a1 e9bd e8cb c3bd
00000070: 6c5f 1fbe 4fe1 c5bc 635f febd 3d68 76be
00000080: b3a0 183d 3ea4 8cbd d3d0 f8bd 233f cdbd
00000090: 34ae 6abc a157 f2bc 5d7c 60be 9a41 67bc
000000a0: a88c 06be 9100 c33d 6795 88bb f199 12be
000000b0: 2ca5 1cbe abe2 0f3e a33a eb3c d6fd 003d
000000c0: 49d5 3b3d 56b9 1abd e13a 4a3c 8ae0 083d
000000d0: bb0a 92bd 3fe5 813d 6f13 2abe 8d14 28be
000000e0: 976f 8ebe 00a7 a0bc 56a6 57be 9318 25be
000000f0: a43f 97bb 24ac 043c 8f30 46bc abff 80bc

net.4.running_mean f4 [64]
-0.93700886 0.068902865 -0.7828701 -1.5976518 -1.09596 -0.9359642 -0.46158704 -1.1268064
-0.8195119 -0.8567165 -0.61243576 -0.91090083 -0.42391038 -1.0655129 -0.8146656 -1.0816603
-0.27770734 -1.2306815 -0.49764445 -1.5472536 -1.0072262 -0.70305693 -0.6488438 -1.5003377
-1.0391672 -0.077335455 -0.32069197 -0.6990972 -0.30920655 -0.47069594 -1.3447013 -0.6813042
-0.9741086 -1.6905483 0.06257525 -0.44222194 -1.9717182 -0.98416895 -1.928781 -0.7848623
-0.27949464 -0.2692224 -1.1635462 0.7970649 -0.1067973 -0.7169211 -1.1225162 -1.2278371
-0.86020434 -1.0849918 -0.7663878 -1.2988155 -1.4551504 -0.6903571 -1.5766678 -1.116665
-1.0056638 -1.3088483 -0.68718463 -1.7652909 -1.2244047 -0.36315602 -1.0574142 -1.3911475
00000000: d0df 6fbf f21c 8d3d 2d6a 48bf db7f ccbf
00000010: 6b48 8cbf 5a9b 6fbf 2355 ecbe 313b 90bf
00000020: 88cb 51bf c651 5bbf 97c8 1cbf cc30 69bf
00000030: c80a d9be ba62 88bf ed8d 50bf d873 8abf
00000040: a82f 8ebe f986 9dbf 41cb febe 680c c6bf
00000050: caec 80bf 8afb 33bf a11a 26bf 110b c0bf
00000060: 6e03 85bf 0d62 9ebd bd31 a4be 09f8 32bf
00000070: 5250 9ebe 0fff f0be 2c1f acbf f469 2ebf
00000080: 2e5f 79bf e363 d8bf 7427 803d ea6a e2be
00000090: 4361 fcbf 7ff2 7bbf 4ce2 f6bf bcec 48bf
000000a0: ec19 8fbe 85d7 89be 15ef 94bf 720c 4c3f
000000b0: 8bb8 dabd 2488 37bf 9cae 8fbf c429 9dbf
000000c0: 5a36 5cbf 03e1 8abf fe31 44bf 963f a6bf
000000d0: 5e42 babf 3ebb 30bf 40d0 c9bf e1ee 8ebf
000000e0: 97b9 80bf 5788 a7bf 55eb 2fbf 0df5 e1bf
000000f0: 4bb9 9cbf 96ef b9be 5959 87bf 1f11 b2bf

net.4.running_var f4 [64]
3.2762148 4.59452 2.0448813 2.143855 1.2825722 5.511082 0.90120536 1.2074763
0.98357666 1.3277056 1.0697005 5.1850867 4.884913 1.4240855 2.4556906 1.1980306
1.002547 2.3714895 2.7901511 4.7000723 0.8326053 4.1133943 2.1940348 2.447889
4.7425327 1.3448297 1.3743669 1.5027459 0.6568033 2.017044 1.633528 2.739012
1.3557444 3.893303 1.0957181 3.760025 2.4544256 2.2227547 3.779257 5.683089
3.1957948 2.703569 5.223884 3.7389565 4.2191143 3.496805 1.6546104 2.6427975
1.3177346 1.5643502 1.2080888 2.4172938 2.1743045 6.507346 2.409434 1.9902662
1.2123812 1.4987725 1.7146584 4.3117785 3.0032988 1.1107256 3.6231463 2.5360045
00000000: 81ad 5140 4f06 9340 56df 0240 ec34 0940
00000010: 532b a43f c95a b040 65b5 663f 958e 9a3f
00000020: aecb 7b3f 42f2 a93f f2eb 883f 3bec a540
00000030: 3551 9c40 6f48 b63f 092a 1d40 1159 993f
00000040: 7653 803f 7cc6 1740 d691 3240 fe66 9640
00000050: 9f25 553f eda0 8340 116b 0c40 37aa 1c40
00000060: d4c2 9740 6123 ac3f 41eb af3f fa59 c03f
00000070: 4324 283f 4017 0140 7217 d13f f94b 2f40
00000080: 0889 ad3f e02b 7940 7e40 8c3f 40a4 7040
00000090: 4f15 1d40 9d41 0e40 59df 7140 dddb b540
000000a0: e787 4c40 4607 2d40 0f2a a740 104b 6f40
000000b0: fc02 8740 a7cb 5f40 46ca d33f 9823 2940
000000c0: 87ab a83f a13c c83f a7a2 9a3f f1b4 1a40
000000d0: ce27 0b40 2e3c d040 2b34 1a40 0bc1 fe3f
000000e0: 4f2f 9b3f c7d7 bf3f ed79 db3f 17fa 8940
000000f0: 0c36 4040 422c 8e3f a1e1 6740 e64d 2240

net.7.weight f4 [128, 64, 3, 3]
-0.041852035 -0.03871436 -0.071979456 0.005214418 0.0007890375 -0.02561764 -0.054268725 -0.06902176
-0.023632986 0.019882916 -0.008300809 0.009159745 -0.010206915 0.024275245 0.015694872 -0.0854284
-0.045330446 -0.042179428 -0.01674123 -0.027278408 0.021144977 -0.052783314 -0.075636275 -0.07328666
-0.052190352 -0.051597197 -0.04604368 0.046197064 0.008480666 0.0764758 0.0815268 0.04826227
0.037982807 -0.12572451 -0.1028057 -0.13444377 0.040426347 -0.0021856604 0.04985137 0.007893305
0.042517014 0.03691546 -0.03486935 -0.026370164 0.0075448924 -0.03414262 0.0003046496 -0.03646314
-0.056452535 -0.08156267 -0.035119064 -0.10333209 -0.041383103 -0.09329836 -0.029275779 -0.00068843295
-0.0687111 -0.0015313753 -0.0034845811 0.000234425 -0.004761737 0.029259738 0.02439112 -0.14402205
-0.16324861 -0.10457032 -0.15123637 -0.10875069 -0.06907763 -0.16885588 -0.1505982 -0.1309377
0.0050837635 0.0720208 0.03648474 0.05860278 0.08195937 0.037065864 0.062443744 0.041953847
0.03846236 0.018171763 0.052808035 0.015301788 -0.012524215 -0.016350923 -0.0027434966 -0.08399174
-0.05375782 -0.09332885 0.13144566 0.12168775 0.035799857 0.05572758 0.09737046 0.061005805
0.081637405 0.103884205 0.065710165 0.0817678 0.043497235 0.039129253 0.023735465 0.032899976
0.059245188 0.037260786 0.062408302 0.014506748 -0.0035963124 0.033804234 0.041750517 -0.00090494397
-0.018497992 -0.061707284 -0.018564736 -0.020133106 -0.08009951 -0.018831212 -0.026233722 -0.02503258
-0.04072036 -0.07779215 -0.064050555 -0.05758867 -0.060866203 -0.052305557 0.014749304 0.0053963736
0.038095776 -0.0080807675 0.010901405 -0.020539952 -0.06919359 -0.061180428 -0.04717982 -0.013012772
0.021662535 -0.018068036 0.002663194 0.021497644 -0.00021688359 0.1305935 0.12655185 0.116411336
0.026201738 0.029007755 0.032441393 -0.0022801044 0.06845687 0.010694658 0.0010707107 0.04056165
0.041166734 0.029320804 0.009382091 0.0021717078 0.011335782 -0.0046919417 -0.0796795 -0.04859142
-0.0419325 -0.108573504 0.05378574 0.059919253 0.017287051 0.045856163 0.07573893 0.056482285
0.027482264 -0.019755935 0.017192509 -0.04130174 -0.023025231 0.016538769 -0.041368958 -0.03255948
0.002896406 -0.049655292 -0.06588313 -0.035606988 -0.045812413 -0.022733593 -0.0059415135 0.0018785915
0.00884071 0.026101325 -0.030589528 -0.028390665 -0.051310286 0.016636724 -0.013747323 -0.028679715
-0.071867734 -0.05295885 -0.048696168 -0.013835446 0.02926494 -0.005137966 0.040731914 0.07246855
0.011137172 0.025887916 -0.038525477 -0.041683916 7.396963e-05 -0.023504 -0.021736715 -0.038724083
0.0008443566 0.064536795 0.059715793 0.09265602 0.12382718 0.04610679 -0.0017024926 0.0032402575
-0.02364786 -0.041275702 -0.06698906 -0.05106366 -0.07538644 -0.07478312 -0.050842572 -0.07268887
-0.04898941 0.038301315 0.09474768 0.09560289 0.07241553 0.041805085 0.05301109 0.09449741
0.13389654 0.06764679 -0.08082325 -0.04615549 -0.050644897 -0.0248454 -0.057832804 -0.060922366
0.027998943 0.0321651 -0.0051395334 -0.052035403 -0.056100782 -0.008212848 0.035037883 -0.02833669
-0.015770424 0.023636155 0.04878697 0.018147796 0.03935639 0.06550154 0.06677974 0.0708453
00000000: 0a6d 2bbd f392 1ebd f769 93bd b5dd aa3b
00000010: 69d7 4e3a 16dc d1bc e248 5ebd 485b 8dbd
00000020: f799 c1bc 7fe1 a23c 1e00 08bc c112 163c
00000030: e83a 27bc e1dc c63c 8892 803c 16f5 aebd
00000040: 6bac 39bd 56c4 2cbd e724 89bc f876 dfbc
00000050: 3b38 ad3c 5133 58bd 31e7 9abd 5117 96bd
00000060: 8dc5 55bd 9557 53bd 4c98 3cbd 2239 3d3d
00000070: 7ef2 0a3c 589f 9c3d 86f7 a63d a8ae 453d
00000080: dc93 1b3d edbd 00be cb8b d2bd a1ab 09be
00000090: 1996 253d 4c3d 0fbb f330 4c3d ec52 013c
000000a0: 5226 2e3d aa34 173d 2ad3 0ebd 3e06 d8bc
000000b0: 253b f73b 22d9 0bbd 61b9 9f39 605a 15bd
000000c0: c63a 67bd 540a a7bd 02d9 0fbd c69f d3bd
000000d0: 5481 29bd 3613 bfbd c2d3 efbc f477 34ba
000000e0: 68b8 8cbd 6eb8 c8ba 925d 64bb fbcf 7539
000000f0: 5808 9cbb 1eb2 ef3c e3cf c73c 847a 13be
00000100: a52a 27be f728 d6bd b5dd 1abe afb8 debd
00000110: 9378 8dbd 8ee8 2cbe 6a36 1abe 8814 06be
00000120: b395 a63b a47f 933d 0671 153d 7809 703d
00000130: 50da a73d 60d2 173d 03c5 7f3d ccd7 2b3d
00000140: b58a 1d3d f3dc 943c 3d4d 583d 5ab4 7a3c
00000150: 5d32 4dbc 5ff2 85bc 3ccc 33bb dd03 acbd
00000160: 2931 5cbd 3223 bfbd b199 063e 6d37 f93d
00000170: dfa2 123d 9a42 643d 2a6a c73d 39e1 793d
00000180: 8331 a73d 3ec1 d43d 0d93 863d e075 a73d
00000190: 282a 323d ff45 203d e170 c23c 20c2 063d
000001a0: 15ab 723d c49e 183d d99f 7f3d b6ad 6d3c
000001b0: 1cb0 6bbb 4f76 0a3d 9702 2b3d c339 6dba
000001c0: 1a89 97bc c7c0 7cbd 1315 98bc 2fee a4bc
000001d0: 360b a4bd ea43 9abc 1ae8 d6bc 2011 cdbc
000001e0: 64ca 26bd 7e51 9fbd f02c 83bd 19e2 6bbd
000001f0: d74e 79bd 5a3e 56bd 11a7 713c 10d4 b03b
00000200: 510a 1c3d 3265 04bc ce9b 323c 6743 a8bc
00000210: 5eb5 8dbd 5498 7abd a03f 41bd 8633 55bc
00000220: a175 b13c 6b03 94bc fb88 2e3b d41b b03c
00000230: 3f6b 63b9 4dba 053e cf96 013e 1169 ee3d
00000240: 07a5 d63c aca1 ed3c 44e1 043d ce6d 15bb
00000250: 1e33 8c3d a638 2f3c 1757 8c3a f923 263d
00000260: 739e 283d 2f32 f03c 58b7 193c 3653 0e3b
00000270: b7b9 393c dcbe 99bb 012f a3bd cc07 47bd
00000280: 6ac1 2bbd c95b debd 704e 5c3d e46d 753d
00000290: 939d 8d3c acd3 3b3d 031d 9b3d f859 673d
000002a0: 7c22 e13c 33d7 a1bc 4ed7 8c3c 032c 29bd
000002b0: 699f bcbc 507c 873c 7f72 29bd 175d 05bd
000002c0: a1d1 3d3b 5963 4bbd bced 86bd a2d8 11bd
000002d0: cca5 3bbd cd3b babc 07b1 c2bb 123b f63a
000002e0: a0d8 103c 72d2 d53c e496 fabc 8a93 e8bc
000002f0: bc2a 52bd bd49 883c 743c 61bc b9f1 eabc
00000300: 642f 93bd 61eb 58bd a275 47bd 11ae 62bc
00000310: 07bd ef3c 625c a8bb 82d6 263d 646a 943d
00000320: af78 363c e512 d43c e4cc 1dbd c1bc 2abd
00000330: 2520 9b38 768b c0bc 3211 b2bc 259d 1ebd
00000340: d057 5d3a de2b 843d 8c98 743d 70c2 bd3d
00000350: 1b99 fd3d 79da 3c3d 2c26 dfba 805a 543b
00000360: 28b9 c1bc b610 29bd 8f31 89bd 2128 51bd
00000370: 3564 9abd e427 99bd 4d40 50bd e7dd 94bd
00000380: 1fa9 48bd d7e1 1c3d 120b c23d 73cb c33d
00000390: 984e 943d cf3b 2b3d 2822 593d dc87 c13d
000003a0: 2d1c 093e 668a 8a3d a986 a5bd 8a0d 3dbd
000003b0: 0671 4fbd 9588 cbbc 17e2 6cbd bb89 79bd
000003c0: 0a5e e53c 8dbf 033d 8869 a8bb 1323 55bd
000003d0: efc9 65bd 2e8f 06bc e283 0f3d 5922 e8bc
000003e0: fa30 81bc 9ca0 c13c d9d4 473d b0aa 943c
000003f0: 2a34 213d ac25 863d d1c3 883d 5717 913d

net.7.bias f4 [128]
0.0012120708 -0.011959304 -0.00464156 -0.006843301 -0.002480768 -0.03794964 0.046319794 0.07180059
0.011222214 0.065626346 0.03370374 -0.06154842 -0.06505161 0.010387123 -0.09293036 -0.0484623
-0.02462644 0.0065731937 -0.01201358 -0.02697265 0.014918992 -0.0417091 -0.0436311 -0.09113457
-0.009905901 -0.007713668 -0.025663106 0.028915728 -0.0130210295 -0.02039658 -0.004329955 0.016670208
-0.033193115 0.01700681 -0.009303839 0.031027768 -0.03526266 -0.017262897 0.03807558 -0.013521694
-0.044671837 -0.013487859 0.015732558 0.023427658 7.498149e-06 -0.022557268 -0.0021295133 0.00024653372
-0.04272572 0.0025176553 -0.015557719 0.036444426 0.016369445 -0.057515983 0.06124946 -0.019984586
-0.021208772 -0.0030035395 -0.029445512 -0.06254242 0.015938671 -0.08306041 0.0007439548 0.030363109
-0.038364146 -0.012376855 -0.041471157 -0.0727449 0.015210972 0.0034772477 0.022581972 0.03109541
0.03646884 0.04376351 0.012647775 -0.018261077 0.049174096 0.04686115 -0.034333058 0.00281102
0.052381653 -0.014530587 0.0012065133 0.024471018 -0.022808166 -0.04024455 -0.059886944 -0.005280783
-0.0060192267 -0.06152473 0.029921653 -0.061472725 0.04001394 -0.0066309054 0.06057377 -0.015778527
-0.00796928 0.029878333 -0.024048164 -0.016658235 -0.019448508 0.005235391 0.03293773 -0.0015336445
0.015417303 0.013688996 0.04429415 0.009349949 0.022434926 0.045734014 -0.09014721 0.002745645
0.0062916544 -0.014108939 -0.036674604 0.021464007 0.044324264 0.02203485 -0.01766184 0.08470553
0.019502115 0.021199308 0.00889125 -0.014390414 -0.020414386 -0.02649482 -0.031375393 -0.029097423
00000000: 59de 9e3a f5f0 43bc 3a18 98bb c53d e0bb
00000010: 6194 22bb 1571 1bbd d3b9 3d3d 300c 933d
00000020: 61dd 373c 1b67 863d ef0c 0a3d 321a 7cbd
00000030: c739 85bd c02e 2a3c 4652 bebd 6880 46bd
00000040: 63bd c9bc f263 d73b 9bd4 44bc bff5 dcbc
00000050: ca6e 743c 29d7 2abd 86b6 32bd c3a4 babd
00000060: 5c4c 22bc f0c2 fcbb 6f3b d2bc ade0 ec3c
00000070: 2856 55bc bb16 a7bc 4ce2 8dbb f68f 883c
00000080: 81f5 07bd de51 8b3c 216f 18bc f22d fe3c
00000090: 946f 10bd eb6a 8dbc 24f5 1b3d 188a 5dbc
000000a0: d1f9 36bd 2efc 5cbc 91e1 803c 5ceb bf3c
000000b0: 9c98 fb36 05ca b8bc 4e8f 0bbb 3241 8139
000000c0: 2a01 2fbd 3fff 243b cee5 7ebc c046 153d
000000d0: 3719 863c e195 6bbd b7e0 7a3d b7b6 a3bc
000000e0: 05be adbc 08d7 44bb b737 f1bc 3e16 80bd
000000f0: d191 823c 941b aabd f605 433a 0ebc f83c
00000100: b923 1dbd 4bc8 4abc a9dd 29bd 47fb 94bd
00000110: 7137 793c 89e2 633b d4fd b83c cdbb fe3c
00000120: 5a60 153d 5e41 333d 9d38 4f3c 4198 95bc
00000130: c76a 493d 7af1 3f3d d2a0 0cbd 1739 383b
00000140: 258e 563d b311 6ebc de23 9e3a 7277 c83c
00000150: 31d8 babc 78d7 24bd 034c 75bd 6b0a adbb
00000160: ef3c c5bb 5b01 7cbd 411e f53c d3ca 7bbd
00000170: a8e5 233d 1148 d9bb 341c 783d f841 81bc
00000180: 9591 02bc 68c3 f43c a800 c5bc da76 88bc
00000190: 7a52 9fbc a58d ab3b b7e9 063d 9204 c9ba
000001a0: db98 7c3c d047 603c c86d 353d 8730 193c
000001b0: 73c9 b73c 9753 3b3d 1a9f b8bd 47f0 333b
000001c0: 392a ce3b 2e29 67bc 1c38 16bd 49d5 af3c
000001d0: 5c8d 353d 6e82 b43c 90af 90bc 187a ad3d
000001e0: e6c2 9f3c 2caa ad3c 9bac 113c c5c5 6bbc
000001f0: 123c a7bc aa0b d9bc 7c83 00bd b85d eebc

net.8.weight f4 [128]
1.2414204 1.2605449 1.2043465 1.2293069 1.1755128 1.2114197 1.2375622 1.2362992
1.2401959 1.1629137 1.2721455 1.1848825 1.2748464 1.2591894 1.2267789 1.2129315
1.1630694 1.1953155 1.2589245 1.2069207 1.1662825 1.2638896 1.1948074 1.2220663
1.1999055 1.2569724 1.23434 1.205399 1.2461603 1.2524359 1.2674172 1.2097974
1.2882949 1.2132885 1.209122 1.3012639 1.2032659 1.1849089 1.1625701 1.2702844
1.2477934 1.1746622 1.1868615 1.2327805 1.2184501 1.2894658 1.2075247 1.2028623
1.2289313 1.2256154 1.1755369 1.2479866 1.1607678 1.1488255 1.2173114 1.2150029
1.3124142 1.2139261 1.2122988 1.162934 1.2420964 1.2413095 1.1929237 1.2099563
1.2804794 1.2983862 1.296757 1.179131 1.2645676 1.2170413 1.242758 1.2031765
1.2527977 1.2259004 1.2324675 1.188179 1.2436693 1.1713213 1.1839275 1.1906658
1.2162496 1.2278842 1.1979353 1.2575803 1.2307731 1.2792889 1.2032657 1.2562121
1.2946929 1.2395169 1.3033206 1.241259 1.242093 1.1658958 1.284853 1.2177743
1.2154036 1.2556 1.212933 1.2450222 1.2709744 1.271588 1.1742606 1.1928438
1.2430848 1.2588085 1.2604401 1.1742305 1.192111 1.2048537 1.1900669 1.2947121
1.2580341 1.2971528 1.2307347 1.2264016 1.1727046 1.226339 1.2701987 1.2752975
1.1523911 1.2735817 1.2977363 1.2118921 1.2339091 1.2007927 1.2302887 1.2385255
00000000: dde6 9e3f 8959 a13f 0728 9a3f ee59 9d3f
00000010: 3477 963f cd0f 9b3f 7068 9e3f 0d3f 9e3f
00000020: bdbe 9e3f 5bda 943f aad5 a23f 3baa 973f
00000030: 2b2e a33f 1e2d a13f 1707 9d3f 5741 9b3f
00000040: 75df 943f 1900 993f 7024 a13f 617c 9a3f
00000050: bf48 953f 22c7 a13f 73ef 983f ab6c 9c3f
00000060: 8196 993f 79e4 a03f dafe 9d3f 844a 9a3f
00000070: 2e82 9f3f d24f a03f ba3a a23f a4da 9a3f
00000080: d9e6 a43f 0a4d 9b3f 82c4 9a3f d18f a63f
00000090: 9e04 9a3f 18ab 973f 19cf 943f ae98 a23f
000000a0: b2b7 9f3f 555b 963f 14eb 973f c0cb 9d3f
000000b0: 2cf6 9b3f 370d a53f 2b90 9a3f 64f7 993f
000000c0: 9f4d 9d3f f7e0 9c3f fe77 963f 06be 9f3f
000000d0: 0a94 943f b70c 933f dcd0 9b3f 3785 9b3f
000000e0: 30fd a73f ee61 9b3f 9b2c 9b3f 05db 943f
000000f0: 04fd 9e3f 3be3 9e3f b9b1 983f d9df 9a3f
00000100: c0e6 a33f 8531 a63f 22fc a53f c4ed 963f
00000110: 5add a13f 02c8 9b3f b212 9f3f b001 9a3f
00000120: ad5b a03f 4eea 9c3f 7fc1 9d3f 4016 983f
00000130: 8e30 9f3f dbed 953f f08a 973f bd67 983f
00000140: 11ae 9b3f 4f2b 9d3f f255 993f 64f8 a03f
00000150: f989 9d3f bdbf a33f 9c04 9a3f 8fcb a03f
00000160: 7fb8 a53f 7da8 9e3f 36d3 a63f 93e1 9e3f
00000170: e7fc 9e3f 133c 953f 1076 a43f 07e0 9b3f
00000180: 5892 9b3f 80b7 a03f 6341 9b3f e35c 9f3f
00000190: 4aaf a23f 65c3 a23f 2c4e 963f 1baf 983f
000001a0: 671d 9f3f a320 a13f 1a56 a13f 2f4d 963f
000001b0: 1897 983f a538 9a3f 1d54 983f 20b9 a53f
000001c0: 4307 a13f 1a09 a63f b788 9d3f bafa 9c3f
000001d0: 2f1b 963f adf8 9c3f df95 a23f f33c a33f
000001e0: 8d81 933f ba04 a33f 391c a63f 481f 9b3f
000001f0: bcf0 9d3f 93b3 993f 1a7a 9d3f 0188 9e3f

net.8.bias f4 [128]
-0.034139764 -0.008376708 0.00042567617 0.040981617 -0.007396046 -0.033947535 0.035829682 0.055016723
0.023921099 -0.014444445 0.008984521 0.03159591 0.077802226 0.0106741395 0.06341902 0.013723467
0.009415751 -0.0072257943 0.0032730922 0.04721713 -0.011042748 0.034309816 -0.0058426643 0.040011708
-0.0019098641 0.051025253 0.08500945 0.0136090955 0.069294214 -0.014069585 0.011154281 -0.026779009
-0.0068368698 0.02896164 0.004152938 0.03056371 0.046269245 0.06473206 -0.003542053 0.018611899
0.03638518 -0.023953589 0.012810797 0.026531056 0.030622402 0.055151485 0.01693225 -0.0005681115
0.030652927 0.07805646 -0.007946342 0.00017091066 -0.0033617544 -0.01627919 0.025875546 0.045693092
0.03378546 0.011073487 -0.018257104 0.018002594 -0.0031526925 0.034326583 0.023543445 -0.0009238918
0.045681763 0.025773292 0.028056134 -0.009619311 0.017068774 0.018623471 -0.046920985 0.01751204
0.025351636 0.0053105103 0.05122896 -0.014821585 0.041335735 0.0024927815 0.008023113 0.030277072
0.009856231 0.030701421 0.053625684 0.06765916 -0.0023843152 0.040453557 0.015901947 0.011398446
0.023616547 0.014652849 0.019850733 0.076544754 0.03674862 0.019703593 -0.025357692 0.0139272185
0.040163115 0.012453846 0.02137602 -0.00016098343 0.021555236 0.04973527 -0.04018316 0.02315826
0.06683725 0.003924608 0.018564707 -0.030633148 0.02825962 0.036581147 0.02038249 0.01617442
0.041610025 0.021292293 0.061716333 0.029138176 0.026246807 -0.014670738 0.016762702 0.006229496
-0.046404723 0.045885682 0.051617272 0.046764053 0.06456842 0.0140973795 0.021189237 -0.015625136
00000000: 23d6 0bbd 763e 09bc 4a2d df39 57dc 273d
00000010: 885a f2bb 920c 0bbd 25c2 123d 3759 613d
00000020: 2ef6 c33c 65a8 6cbc d033 133c b76a 013d
00000030: c656 9f3d 96e2 2e3c d5e1 813d 64d8 603c
00000040: 8644 1a3c 5bc6 ecbb 6081 563b c066 413d
00000050: a4ec 34bc 7388 0c3d d273 bfbb 51e3 233d
00000060: 6854 faba dbff 503d 6f19 ae3d aff8 5e3c
00000070: 20ea 8d3d 1e84 66bc 72c0 363c a75f dbbc
00000080: d207 e0bb f640 ed3c 5e15 883b bf60 fa3c
00000090: d284 3d3d 3e92 843d ca21 68bb fb77 983c
000000a0: a008 153d 513a c4bc 61e4 513c a857 d93c
000000b0: d5db fa3c 86e6 613d 80b5 8a3c 51ed 14ba
000000c0: d91b fb3c 11dc 9f3d 6031 02bc 7b36 3339
000000d0: e150 5cbb f05b 85bc f4f8 d33c ae28 3b3d
000000e0: 9f62 0a3d 926d 353c ec8f 95bc 2d7a 933c
000000f0: 679d 4ebb 089a 0c3d 2fde c03c 5431 72ba
00000100: cd1c 3b3d 8322 d33c fad5 e53c 519a 1dbc
00000110: d0d3 8b3c 4090 983c 3830 40bd 6975 8f3c
00000120: 3cae cf3c ca03 ae3b 75d5 513d 3cd6 72bc
00000130: a94f 293d ef5d 233b 6073 033c 9f07 f83c
00000140: 077c 213c 8c81 fb3c 9ba6 5b3d e390 8a3d
00000150: 2c42 1cbb a1b2 253d cd44 823c 8cc0 3a3c
00000160: 7d77 c13c 8112 703c 019e a23c 7fc3 9c3d
00000170: b985 163d 6e69 a13c efba cfbc fd2e 643c
00000180: 1482 243d 370b 4c3c c31c af3c a9cd 28b9
00000190: 9b94 b03c 36b7 4b3d 1997 24bd 64b6 bd3c
000001a0: f8e1 883d 009a 803b 0315 983c 5ef2 fabc
000001b0: b880 e73c 1dd6 153d 2ef9 a63c 3880 843c
000001c0: 466f 2a3d 2d6d ae3c 44ca 7c3d 2fb3 ee3c
000001d0: 8b03 d73c 895d 70bc ef51 893c cd20 cc3b
000001e0: e112 3ebd a0f2 3b3d a26c 533d aa8b 3f3d
000001f0: 733c 843d b2f8 663c 0d95 ad3c 4900 80bc

net.8.running_mean f4 [128]
0.17654808 0.31341258 -1.5445124 -1.6933968 -1.1775405 -0.0077831997 0.5888123 -0.46196562
0.051374607 0.39567783 0.20538414 0.6280717 -0.060536373 0.15125684 0.3372013 0.389878
-0.2496198 -0.9788627 -0.14008619 0.48882896 0.028528493 -0.058466725 0.19353074 -0.7059667
0.695405 -0.4077001 -0.55528796 0.32692656 -0.5650218 -0.45211154 0.24918279 0.3828523
-0.38565713 -1.7519317 0.01421643 0.43852192 0.1808808 0.031122651 -1.2720301 0.11193412
-0.08429488 0.18962723 -0.0057094516 0.2556732 -0.49595946 0.82333565 -0.2188081 0.39746776
-0.22922899 -0.3536195 -0.0072942134 -0.0844779 -0.95627767 -0.032131974 -0.23115309 -0.49232784
0.010144885 0.15833257 -0.2000115 -0.4812273 0.041619707 -0.53454316 0.05427478 0.72436947
-1.6356717 0.5251507 -0.3193637 0.34840477 0.5753355 -0.13438092 0.21302721 0.44883165
0.57181555 0.48549736 0.13083501 -0.5107909 -0.019818502 -0.36175716 -1.7464054 -1.1161324
-0.5936864 -0.67109644 -0.23882958 0.11681905 0.63894206 -1.1100563 -1.7560486 -0.13178876
0.15559787 0.1362739 0.35497412 -0.34870884 -0.5499013 -1.1026423 0.59951234 -0.08592913
-0.5768938 0.35302904 -0.49017265 -0.27923205 0.44115266 0.3848528 -0.18267943 0.13528949
0.52945185 -0.6871185 0.48596624 0.091780916 -1.5182543 -0.4327956 -1.2556285 0.02197053
-0.7228823 -1.0366164 -1.7159183 0.4267817 -0.030126505 0.37025505 -0.20334922 -0.039623413
-1.2039901 -0.50299364 -1.0940303 -0.33981666 -0.19220892 -0.56347895 0.08920783 0.94616544
00000000: 05c9 343e 9d77 a03e 95b2 c5bf 3ac1 d8bf
00000010: a6b9 96bf 360a ffbb 67bc 163f c286 ecbe
00000020: 2e6e 523d 4996 ca3e 3850 523e 4fc9 203f
00000030: fdf4 77bd 13e3 1a3e a6a5 ac3e 179e c73e
00000040: 559c 7fbe bf96 7abf c172 0fbe ca47 fa3e
00000050: 96b4 e93c ce7a 6fbd ec2c 463e 3cba 34bf
00000060: 1006 323f 11be d0be 5a27 0ebf eb62 a73e
00000070: 45a5 10bf 2a7b e7be c629 7f3e 3705 c43e
00000080: da74 c5be 4c3f e0bf 07ec 683c f285 e03e
00000090: d138 393e eef4 fe3c e2d1 a2bf b73d e53d
000000a0: cba2 acbd a42d 423e 5a16 bbbb 99e7 823e
000000b0: 66ee fdbe 20c6 523f 3b0f 60be e580 cb3e
000000c0: 01bb 6abe 9d0d b5be 4c04 efbb c002 adbd
000000d0: 9dce 74bf d19c 03bd 65b3 6cbe 6512 fcbe
000000e0: bb36 263c ef21 223e d1cf 4cbe 6d63 f6be
000000f0: 6d79 2a3d d2d7 08bf 3b4f 5e3d 4770 393f
00000100: b15d d1bf 4770 063f a483 a3be 1c62 b23e
00000110: 3049 133f 279b 09be ce23 5a3e 43cd e53e
00000120: 8162 123f 1c93 f83e 9df9 053e 31c3 02bf
00000130: 695a a2bc 3c38 b9be 368a dfbf 6ddd 8ebf
00000140: d5fb 17bf facc 2bbf be8f 74be d33e ef3d
00000150: b591 233f 5316 8ebf 33c6 e0bf a2f3 06be
00000160: 0c55 1f3e 638b 0b3e 2bbf b53e f789 b2be
00000170: 55c6 0cbf 6223 8dbf a479 193f 9dfb afbd
00000180: 50af 13bf 39c0 b43e e9f7 fabe 81f7 8ebe
00000190: c3de e13e 6d0b c53e 5110 3bbe 5489 0a3e
000001a0: 288a 073f ffe6 2fbf 91d0 f83e a2f7 bb3d
000001b0: 2856 c2bf 6397 ddbe 6fb8 a0bf 8afb b33c
000001c0: d00e 39bf d9af 84bf 36a3 dbbf 2283 da3e
000001d0: dccb f6bc 1292 bd3e c73a 50be 294c 22bd
000001e0: 591c 9abf 31c4 00bf 2f09 8cbf 73fc adbe
000001f0: 6ad2 44be 2840 10bf 98b2 b63d e637 723f

net.8.running_var f4 [128]
0.157441 0.31677034 0.24512447 0.26655015 0.26361874 0.23108052 0.17609248 0.29883164
0.2793832 0.17805059 0.21231174 0.20170715 0.18905191 0.25256458 0.20128328 0.18177685
0.2563129 0.17552087 0.36162588 0.2251044 0.16760859 0.21478486 0.20426966 0.17315939
0.42435163 0.15063685 0.34083506 0.39793956 0.31853896 0.3398028 0.357559 0.23094662
0.234118 0.3046017 0.34818548 0.21913786 0.17078526 0.29845405 0.27890006 0.2660844
0.22083732 0.23361258 0.20503987 0.19081298 0.27619734 0.26633358 0.20729809 0.20109424
0.20561615 0.3302047 0.19986218 0.19553438 0.22077551 0.23986451 0.19116335 0.35429722
0.20527376 0.27945045 0.28342918 0.2786791 0.18175028 0.18825473 0.26000765 0.19627145
0.3646158 0.30108854 0.18125841 0.23972811 0.33186328 0.45592555 0.23465145 0.27160987
0.29404062 0.19201382 0.34041262 0.19214907 0.1763415 0.31543827 0.4116069 0.34674424
0.2329825 0.3070667 0.27290475 0.20404515 0.3207322 0.3603518 0.2927844 0.19554341
0.2828557 0.22016534 0.21012585 0.3264781 0.23268421 0.36219642 0.26318124 0.20813951
0.37418306 0.24212787 0.2346519 0.22591718 0.2074036 0.2397444 0.19676708 0.3719723
0.1719941 0.3130254 0.18583252 0.25073949 0.3192382 0.20479076 0.33634862 0.22585154
0.21969903 0.36846378 0.29672152 0.36187875 0.48100892 0.29403594 0.20239025 0.26813424
0.20568174 0.33996433 0.3300633 0.30254906 0.30588764 0.1950665 0.20012744 0.3198278
00000000: 3738 213e b92f a23e e901 7b3e 4379 883e
00000010: 09f9 863e 5fa0 6c3e 9651 343e 7600 993e
00000020: 510b 8f3e e552 363e 4068 593e 528c 4e3e
00000030: d396 413e 2550 813e 341d 4e3e b623 3a3e
00000040: 723b 833e bebb 333e 0727 b93e c581 663e
00000050: 96a1 2b3e 90f0 5b3e 112c 513e b250 313e
00000060: 9e44 d93e 8c40 1a3e ef81 ae3e bcbe cb3e
00000070: 8a17 a33e a2fa ad3e f911 b73e 457d 6c3e
00000080: a1bc 6f3e c1f4 9b3e 5e45 b23e ad65 603e
00000090: 55e2 2e3e f8ce 983e fdcb 8e3e 373c 883e
000000a0: 2e23 623e 2338 6f3e f9f5 513e 7a64 433e
000000b0: bd69 8d3e e05c 883e f345 543e a6eb 4d3e
000000c0: 0a8d 523e 9710 a93e aca8 4c3e 2a3a 483e
000000d0: fa12 623e 0b9f 753e 53c0 433e 7266 b53e
000000e0: 4933 523e 2114 8f3e a11d 913e 07af 8e3e
000000f0: bf1c 3a3e d9c5 403e b91f 853e 62fb 483e
00000100: ecae ba3e 4728 9a3e ce9b 393e 497b 753e
00000110: fce9 a93e 136f e93e 7848 703e 7310 8b3e
00000120: 7e8c 963e 459f 443e 904a ae3e bac2 443e
00000130: de92 343e 2081 a13e 24be d23e 7688 b13e
00000140: f792 6e3e d937 9d3e 2cba 8b3e 36f1 503e
00000150: 0337 a43e 0880 b83e d6e7 953e 883c 483e
00000160: 76d2 903e 0673 613e 3b2b 573e 2328 a73e
00000170: c544 6e3e cf71 b93e b1bf 863e 8622 553e
00000180: ec94 bf3e 5ef0 773e 9648 703e d556 673e
00000190: 9c61 543e 8e7f 753e 4f7d 493e 2773 be3e
000001a0: 391f 303e dd44 a03e e14a 3e3e ed60 803e
000001b0: 3073 a33e abb4 513e e335 ac3e a045 673e
000001c0: c8f8 603e 49a7 bc3e e2eb 973e 2c48 b93e
000001d0: cd46 f63e e18b 963e 643f 4f3e e448 893e
000001e0: 3c9e 523e ce0f ae3e 0ffe a83e b6e7 9a3e
000001f0: 4e9d 9c3e 83bf 473e 35ee 4c3e 78c0 a33e
