Generalization Across Age Groups/feature_hubert_accent_model.pt (torch, 925136 bytes, 6 tensors)

net.0.weight f4 [256, 768]
-0.024176238 0.060435295 0.011405259 -0.15046594 -0.037982278 0.045270387 -0.04345596 0.020043833
-0.04736078 -0.091222346 -0.023560088 -0.065929584 0.040333614 -0.000954716 -0.0799894 -0.08176336
0.00071776856 0.020964714 0.094250806 0.08834512 -0.045880374 0.055363826 0.010079347 -0.040369652
-0.034555953 0.13439249 -0.012258505 -0.028138155 0.0518425 -0.0151001 0.0046474524 0.02861807
-0.05329982 0.15256126 0.052155904 0.09079301 -0.04930769 0.020193296 0.009972008 0.008011489
-0.029335536 -0.027940784 -0.042069335 0.014354268 -0.022506183 0.12244994 -0.07428865 -0.188176
-0.042802554 0.059447788 0.065006 0.032648858 0.007334232 -0.015853288 0.02924103 -0.026853396
-0.04425858 0.046046518 0.03819869 0.017894885 -0.025224604 -0.03149847 -0.008342549 0.02239766
-0.17821082 0.013209463 0.087932765 -0.003261884 0.12136144 -0.07405699 -0.11822986 0.13156441
-0.06060163 -0.30293292 0.04258324 -0.017005326 0.032333437 0.14949572 -0.19471723 0.072407335
0.06749886 -0.058743395 -0.038575973 0.07770365 0.018126065 -0.19932158 0.024787808 -0.027769541
-0.20238434 -0.00806518 -0.059304256 -0.07880097 0.027446764 -0.020344475 -0.02931465 0.018013904
-0.017412934 -0.11362597 -0.051215176 0.00069271465 0.03692607 -0.028566638 -0.10736456 -0.0753007
0.015563897 0.041776262 0.030634327 -0.099286035 0.040767573 0.0005878466 -0.062390838 -0.046340004
-0.06330937 -0.03335082 -0.22522992 -0.07271798 -0.053466 0.15298496 0.026501091 -0.039199382
-0.021295913 -0.01118404 0.04836777 -0.007277968 -0.12504056 -0.11912205 0.06434723 -0.009585704
-0.037383057 0.107483655 -0.028273782 -0.124017976 0.12130937 0.054221157 -0.018869532 0.03205669
0.007848759 -0.066035725 -0.011661211 0.019821607 0.087958775 -0.048483983 -0.021817436 0.030719714
0.014734148 -0.03565502 -0.01872024 -0.18359078 0.19805358 -0.08773845 -0.1452807 -0.059871383
0.073957026 -0.119747214 0.025689859 0.057151683 -0.02760869 -0.04968222 -0.018965544 -0.1502175
0.09986623 0.027187139 -0.0018693873 -0.033865552 0.016858064 -0.19014828 0.053556133 -0.032168444
-0.013388597 0.025399392 -0.008953004 0.116409935 0.020505823 0.047761396 -0.031964052 0.03442226
0.0061869146 0.05826867 -0.21789026 0.013324412 -0.13431972 0.09023862 -0.02284982 -0.17366073
0.09759305 0.03796834 -0.016444482 -0.07710802 -0.09255319 -0.04374018 0.04204915 0.024150757
0.011911472 0.034990683 0.122014806 0.021528807 -0.042926624 -0.011288444 0.090490445 0.12753661
-0.040671766 0.0523731 -0.026208634 0.0026991006 0.09326781 -0.00391218 -0.08023845 -0.10990231
-0.035085212 0.016998513 0.032296345 0.00823561 -0.060338512 -0.019794164 -0.04580767 -0.014358723
0.0008641809 0.048788328 -0.06677522 -0.017989013 -0.061104868 -0.01714582 0.06288749 0.12576696
0.01652151 0.09967575 0.08416421 0.044712618 0.09425342 0.118737526 0.0023757326 0.11995005
-0.08804427 0.059910968 0.040752146 0.01022796 0.017674314 -0.041000713 -0.08008045 0.05177087
-0.021170704 0.018354405 0.041865356 0.00026516325 -0.010453515 -0.111102335 0.07950337 0.12696128
-0.053144984 0.0001790916 -0.07715976 0.0011978444 0.0005774723 0.0205008 -0.035978273 -0.019801253
00000000: 3f0d c6bc 008b 773d 20dd 3a3c be13 1abe
00000010: 4e93 1bbd 716d 393d e0fe 31bd f732 a43c
00000020: 61fd 41bd c8d2 babd 1601 c1bc 1706 87bd
00000030: dc34 253d e845 7aba 7cd1 a3bd 8c73 a7bd
00000040: a228 3c3a 31be ab3c 9106 c13d 49ee b43d
00000050: 0fed 3bbd 2ec5 623d d823 253c a65a 25bd
00000060: 8b8a 0dbd 2f9e 093e e6d7 48bc fd81 e6bc
00000070: cd58 543d 6966 77bc a849 983b 7170 ea3c
00000080: e950 5abd 0539 1c3e 6ea1 553d b0f1 b93d
00000090: dcf6 49bd 696c a53c a261 233c 9f42 033c
000000a0: 1451 f0bc 12e4 e4bc e550 2cbd 2a2e 6b3c
000000b0: e35e b8bc 09c7 fa3d a624 98bd 36b1 40be
000000c0: bb51 2fbd 867f 733d de21 853d cfba 053d
000000d0: ff53 f03b c1de 81bc e28a ef3c a7fb dbbc
000000e0: 7c48 35bd 469b 3c3d 3b76 1c3d 4b98 923c
000000f0: d4a3 cebc 8a04 01bd 30af 08bc 4c7b b73c
00000100: e67c 36be 816c 583c 1816 b43d 55c5 55bb
00000110: 598c f83d 31ab 97bd 7f22 f2bd d2b8 063e
00000120: 6a39 78bd 061a 9bbe c36b 2e3d c14e 8bbc
00000130: 1170 043d 6815 193e f463 47be 4c4a 943d
00000140: d83c 8a3d ea9c 70bd d701 1ebd 1723 9f3d
00000150: 1d7d 943c f51a 4cbe cd0f cb3c f37c e3bc
00000160: d73d 4fbe d123 04bc 05e9 72bd 6762 a1bd
00000170: 09d8 e03c 75a9 a6bc 4725 f0bc e591 933c
00000180: 92a5 8ebc bcb4 e8bd 01c7 51bd 4b97 353a
00000190: ca3f 173d 9504 eabc f3e1 dbbd 4137 9abd
000001a0: b7ff 7e3c 961d 2b3d d7f4 fa3c 7a56 cbbd
000001b0: e6fb 263d b819 1a3a 898d 7fbd 04cf 3dbd
000001c0: 58a8 81bd df9a 08bd aca2 66be 2aed 94bd
000001d0: 2aff 5abd 17a8 1c3e d118 d93c 888f 20bd
000001e0: c474 aebc 443d 37bc 481d 463d 057c eebb
000001f0: a20a 00be 43f6 f3bd 7bc8 833d 5b0d 1dbc
00000200: fa1e 19bd 6420 dc3d 6b9e e7bc 23fd fdbd
00000210: 0c71 f83d 0117 5e3d 4794 9abc e04d 033d
00000220: 1598 003c bd3d 87bd aa0e 3fbc ec60 a23c
00000230: bb23 b43d 2497 46bd 7bba b2bc e9a7 fb3c
00000240: 7f67 713c 000b 12bd 305b 99bc 39ff 3bbe
00000250: 8fce 4a3e 37b0 b3bd 77c4 14be b23b 75bd
00000260: c876 973d 073e f5bd 8a73 d23c e217 6a3d
00000270: 9f2b e2bc 957f 4bbd a15d 9bbc 9ed2 19be
00000280: aa86 cc3d 90b7 de3c 3b06 f5ba 9bb6 0abd
00000290: ec19 8a3c 3bb6 42be ad5d 5b3d 0fc3 03bd
000002a0: d95b 5bbc 6312 d03c 9faf 12bc 5568 ee3d
000002b0: d4fb a73c 74a1 433d bdec 02bd 5bfe 0c3d
000002c0: 9abb ca3b 21ab 6e3d a01e 5fbe a24e 5a3c
000002d0: 1c8b 09be 07cf b83d 8c2f bbbc 1ed4 31be
000002e0: ddde c73d b184 1b3d 94b6 86bc cfea 9dbd
000002f0: 878c bdbd e728 33bd bb3b 2c3d cfd7 c53c
00000300: 5628 433c 6452 0f3d e6e2 f93d 2e5d b03c
00000310: d4d3 2fbd 2af3 38bc 0e53 b93d f598 023e
00000320: 7097 26bd 2d85 563d 7db3 d6bc 65e3 303b
00000330: 3203 bf3d bf31 80bb 0e54 a4bd 7614 e1bd
00000340: 83b5 0fbd 7740 8b3c 2c49 043d a7ee 063c
00000350: 8425 77bd 5f27 a2bc d3a0 3bbd d940 6bbc
00000360: 338a 623a 45d6 473d 72c1 88bd b25d 93bc
00000370: 1949 7abd 6475 8cbc 28cb 803d 0ec9 003e
00000380: 1e58 873c cd22 cc3d 495e ac3d 9424 373d
00000390: f007 c13d a92c f33d 2eb2 1b3b 5fa8 f53d
000003a0: 8e50 b4bd 3465 753d b9eb 263d 2c93 273c
000003b0: b9c9 903c 5df0 27bd 3801 a4bd b10d 543d
000003c0: 2f6e adbc fa5b 963c 027b 2b3d 9c05 8b39
000003d0: 3845 2bbc 9f89 e3bd aad2 a23d 2302 023e
000003e0: 8eae 59bd 89ca 3b39 f005 9ebd fd00 9d3a
000003f0: 8361 173a 4bf1 a73c f45d 13bd 3d36 a2bc

net.0.bias f4 [256]
-0.013962004 -0.021649247 -0.0103331655 -0.020865083 -0.017623624 -0.026889645 0.031672545 -0.012792019
-0.029017713 0.00949306 0.009692007 -0.01831306 0.005460001 0.037653927 -0.022075942 0.029568808
0.016498568 -0.017056273 -0.021017361 0.03566751 -0.0040351106 -0.035093963 0.03791489 -0.033801105
0.027626757 -0.026306136 0.042119097 0.03737266 0.029849602 0.0054355585 -0.030622046 -0.0062516485
0.0055799936 -0.0039805276 0.033931717 0.00037453842 0.025009537 0.014020911 0.0050501376 -0.0097012315
0.011847881 0.015928969 -0.008754918 -0.0048008407 0.0075499425 0.010271794 -0.0099765435 -0.0073818117
-0.04311269 -0.03919143 0.047000498 0.041449133 0.014980333 0.055142887 0.018289201 0.032198794
0.0003868448 0.00031832606 -0.02978607 0.024489798 -0.024309741 0.022212846 0.023541538 0.02014768
-0.004435491 0.0111588305 -0.03239246 -0.005067282 0.014797773 -0.00710898 0.01669137 -0.00014857003
0.029499428 0.03431665 0.007874526 0.040020674 0.02208958 0.011885043 0.025088817 0.0019769007
-0.008295454 0.021420024 -0.007392003 -0.014309675 -0.016785467 -0.026042122 -0.013513085 -0.0033688268
-0.031450544 0.030453287 -0.036385763 0.010148301 0.018272411 -0.010581672 0.0010007878 -0.018609142
0.009634468 -0.004124126 -0.027865438 0.0037401782 0.03777615 0.02430925 -0.029366244 0.029202562
0.010817336 0.049110077 0.030589573 -0.00991429 -0.006960224 0.028937005 0.05080247 -0.027020764
0.028174713 0.021505024 -0.024605438 -0.0022167903 -0.0010240836 0.0020628155 -0.009676159 0.006033923
-0.013098077 0.017216645 0.04916329 -0.035312697 -0.037584968 -0.0276737 0.036528997 -0.0073323613
-0.02865909 0.036601048 -0.014584535 -0.039189406 -0.0053217937 -0.02247165 -0.012089403 0.00044512493
0.02917525 -0.026505884 -0.0074405363 0.013362858 -0.023010055 0.024596857 0.0022431614 0.010943496
-0.027622022 -0.010616079 -0.02449676 0.02985593 -0.0036554888 0.021422328 0.0019340494 0.040943053
-0.020832315 0.01945186 -0.035927195 0.0022241853 -0.010349296 -0.0037325919 0.025412317 -0.01523217
-0.022203933 -0.037972998 0.0103578 0.030317592 0.0027046571 0.027183883 -0.014009307 -0.017684335
-0.01182457 -0.020375699 -0.029554406 -0.03968262 0.03182181 -0.0400882 -0.0018789166 -0.0038933123
0.01971795 -0.039498713 0.014670354 0.025451945 0.018947992 0.017329104 -0.002141464 0.024410576
0.006161586 -0.00539098 0.006132226 -0.011855577 -0.0019926273 -0.0036554511 0.007203159 -0.012923241
0.03693502 0.012052782 0.005486654 0.013298546 -0.039604638 0.030324211 -0.015750509 -0.0113164475
0.043330222 0.042859945 0.0059473566 0.010354135 0.04033483 0.01246978 -0.015198886 0.013218681
-0.007933278 -0.014363038 -0.035364058 -0.01642008 -6.502173e-05 0.037472565 -0.01721994 0.0092235375
-0.032964814 0.025258454 0.05095162 0.036911324 0.02465031 -0.0074714483 0.012574178 0.009614949
-0.0358005 -0.0023383736 -0.012898621 0.03232128 -0.018876022 -0.0068302522 0.015971193 -0.028596196
0.012615458 0.026023457 0.012987678 0.007544238 0.038394477 -0.037793275 -0.01226553 -0.007892043
-0.011445498 -0.00794202 -0.020060306 0.0021943413 0.03430008 0.009538525 0.0132602565 0.021543007
0.046993013 -0.008541829 -0.0010495009 -0.026673388 -0.017693397 0.026621964 -0.014103881 0.030137392
00000000: e4c0 64bc c359 b1bc 704c 29bc 40ed aabc
00000010: 6b5f 90bc ac47 dcbc 12bb 013d 9e95 51bc
00000020: 8eb6 edbc c888 1b3c 39cb 1e3c 4505 96bc
00000030: cfe9 b23b 013b 1a3d 9bd8 b4bc 493a f23c
00000040: 0128 873c 99b9 8bbc 9a2c acbc 1818 123d
00000050: f638 84bb b0be 0fbd a54c 1b3d 0773 0abd
00000060: 8251 e23c f77f d7bc 1385 2c3d 1314 193d
00000070: 2787 f43c c51c b23b 16db fabc a1da ccbb
00000080: 61d8 b63b 166f 82bb fcfb 0a3d b25d c439
00000090: cde0 cc3c f7b7 653c a07b a53b eaf1 1ebc
000000a0: 9d1d 423c 787d 823c ca70 0fbc 5f50 9dbb
000000b0: 8265 f73b 074b 283c a874 23bc 20e3 f1bb
000000c0: ef96 30bd 3187 20bd 9883 403d 91c6 293d
000000d0: 1270 753c 82dd 613d 3cd3 953c e2e2 033d
000000e0: 6ed1 ca39 00e5 a639 eb01 f4bc d49e c83c
000000f0: 3925 c7bc b7f7 b53c 2fda c03c bf0c a53c
00000100: 9857 91bb 87d3 363c f5ad 04bd 710b a6bb
00000110: 5c72 723c 72f2 e8bb 57bc 883c 77c9 1bb9
00000120: c9a8 f13c 9e8f 0c3d 2804 013c b8ec 233d
00000130: 35f5 b43c 7cb9 423c 1087 cd3c e48e 013b
00000140: a8e9 07bc 0c79 af3c 9e38 f2bb 2173 6abc
00000150: ad81 89bc 4a56 d5bc fd65 5dbc 89c7 5cbb
00000160: 49d2 00bd 2c79 f93c 3d09 15bd 0f45 263c
00000170: 06b0 953c c05e 2dbc de2c 833a 3372 98bc
00000180: e3d9 1d3c ad23 87bb 0f46 e4bc c71d 753b
00000190: 2abb 1a3d 3124 c73c 7a91 f0bc 363a ef3c
000001a0: 323b 313c a627 493d fc96 fa3c 8c6f 22bc
000001b0: 9712 e4bb 4c0d ed3c 4016 503d a65a ddbc
000001c0: a8ce e63c 4e2b b03c 5891 c9bc 9247 11bb
000001d0: 8b3a 86ba 4d30 073b c188 1ebc 37b8 c53b
000001e0: 5199 56bc ec09 8d3c 725f 493d 0ca4 10bd
000001f0: b2f2 19bd f5b3 e2bc 6e9f 153d 4e44 f0bb
00000200: 78c6 eabc fbea 153d f9f3 6ebc 1285 20bd
00000210: 7162 aebb 7716 b8bc a212 46bc a85f e939
00000220: ef00 ef3c de22 d9bc becf f3bb e4ef 5a3c
00000230: 957f bcbc 597f c93c 0102 133b 594c 333c
00000240: 9447 e2bc 10ef 2dbc 6ead c8bc 6c94 f43c
00000250: ed90 6fbb e17d af3c ee7f fd3a e7b3 273d
00000260: 88a8 aabc 8259 9f3c 6528 13bd a3c3 113b
00000270: 1890 29bc 809e 74bb 7e2d d03c 5a90 79bc
00000280: 06e5 b5bc 9389 1bbd c3b3 293c 995c f83c
00000290: 9e40 313b bcb0 de3c 4b87 65bc bdde 90bc
000002a0: d7bb 41bc f0ea a6bc 151c f2bc 3e8a 22bd
000002b0: 9657 023d 8633 24bd fb45 f6ba f126 7fbb
000002c0: 8a87 a13c 67c9 21bd ed5b 703c 9980 d03c
000002d0: d238 9b3c c4f5 8d3c ce57 0cbb b0f8 c73c
000002e0: 21e7 c93b d1a6 b0bb d7f0 c83b e53d 42bc
000002f0: bd96 02bb 4b90 6fbb 7a08 ec3b 00bc 53bc
00000300: 2d49 173d 0879 453c 64c9 b33b 25e2 593c
00000310: 7938 22bd 7b6a f83c 3607 81bc 9f68 39bc
00000320: 087b 313d e98d 2f3d 0be2 c23b 64a4 293c
00000330: 2236 253d 0c4e 4c3c c004 79bc 2b93 583c
00000340: 94fa 01bc f352 6bbc e7d9 10bd 6783 86bc
00000350: 475c 88b8 d57c 193d d510 8dbc 521e 173c
00000360: 1d06 07bd d1ea ce3c a5b2 503d 5430 173d
00000370: 72ef c93c 0dd3 f4bb ed03 4e3c 0588 1d3c
00000380: 8ca3 12bd 663f 19bb bd54 53bc 5263 043d
00000390: e3a1 9abc 4fd0 dfbb 05d6 823c 9242 eabc
000003a0: 11b1 4e3c 252f d53c 45ca 543c a835 f73b
000003b0: 8743 1d3d 1fcd 1abd 5df5 48bc a14d 01bc
000003c0: e685 3bbc 3f1f 02bc 8355 a4bc f0ce 0f3b
000003d0: 3e7e 0c3d 7947 1c3c 8c41 593c f67a b03c
000003e0: bf7b 403d 07f3 0bbc 688f 89ba 2682 dabc
000003f0: bef1 90bc 4e16 da3c f713 67bc b1e2 f63c

net.3.weight f4 [128, 256]
-0.023667842 0.04714667 0.009709505 0.052190315 -0.09856913 0.08264072 -0.06378256 -0.030606467
0.021702608 0.106987745 -0.03562747 0.007748742 -0.07931376 -0.03677369 -0.024831738 0.05418053
0.10107259 0.06817087 -0.024839899 0.15086807 -0.07998593 -0.005001525 0.03527968 0.008028089
0.05205119 0.06640457 0.09809091 -0.009557469 0.10283237 -0.0285925 0.07304318 -0.036743604
0.014841269 -0.061286382 -0.11461214 -0.09749285 0.091508634 0.08980664 0.084208004 -0.045795616
-0.09112429 0.032434534 -0.05676997 0.05109035 -0.06459291 -0.089372076 0.004969798 -0.0030442795
0.01495817 -0.06574783 0.036952954 -0.05638752 -0.0004887652 0.003005838 0.064194605 0.08368563
0.08375869 -0.05733852 0.05040606 0.044859435 -0.061700583 -0.04139586 -0.06605217 0.088304885
0.057427675 0.050485387 -0.019425761 0.060085315 0.10338861 -0.05137384 -0.09709149 -0.023625856
-0.014335857 0.048194323 0.04871538 -0.062023528 0.09133391 -0.0005141869 -0.060952697 0.01959862
-0.0033026503 -0.051622126 0.05301003 0.06550386 -0.033531483 -0.050852504 -0.12126453 0.08186376
-0.05512198 -0.04777371 0.03948106 0.026507257 -0.13533135 0.048631415 0.034712464 0.016220944
0.0067547783 0.06256328 0.026433311 0.0024217607 -0.011999988 -0.10713208 -0.031711794 0.059525084
0.016817186 0.00525802 0.109891124 0.082945995 -0.040348813 0.07683267 0.019584365 0.018661179
-0.06521614 0.038165804 -0.13315651 -0.04804823 -0.0020680123 -0.006142857 0.09831586 0.020169603
-0.04711977 0.037014365 -0.04554006 0.080660604 0.07814517 0.02769256 0.10137344 -0.048565686
-0.0070410697 0.042398214 0.04274348 -0.055946182 0.034380153 -0.05046826 0.022309944 -0.01086105
0.030616168 -0.02684843 -0.009994708 -0.10700696 0.0367761 -0.06518067 0.08378179 0.009444685
0.02304155 -0.074550726 0.009406937 -0.017384605 0.0029688496 0.05039118 0.008915182 0.11490776
-0.009491903 -0.008672134 0.05519531 0.008293146 -0.09027666 0.058153994 0.07022186 0.031237222
-0.015000874 -0.023743834 0.0033361798 0.071749695 0.05981987 0.014416705 0.01611672 0.08122075
0.03946972 0.03369134 -0.0068103983 -0.065745756 -0.014676714 -0.04016193 -0.010895125 0.024145225
0.047792528 -0.045591358 0.06137482 0.00224819 -0.07088886 -0.028033368 0.03761196 0.055494793
0.08085384 -0.020899849 0.032808915 -0.061798472 -0.032352928 0.00033289532 -0.010046484 -0.029449932
0.0017337664 0.095915124 -0.016720917 0.058369722 -0.03972088 0.12024641 -0.005927709 -0.09633804
-0.034962885 -0.023408309 -0.042034585 -0.085083835 -0.054463964 0.039190598 0.037446395 -0.009442996
-0.056536708 0.06436363 0.00077480765 -0.0325249 -0.0148187345 -0.010672029 0.06177817 0.0967761
0.02745859 -0.022740105 0.045940507 -0.030722424 0.052510288 0.011483192 0.00014272703 0.10535278
0.08239838 -0.029097749 0.12433854 0.095288545 -0.037630454 0.0017541981 0.04168762 0.030031318
0.04526269 -0.032521404 0.1028935 -0.0150336325 0.07500508 0.085435 0.0063031446 0.030889474
-0.0320902 0.107236706 -0.025258956 0.025161631 -0.02433154 0.010610005 -0.01140865 0.062315468
0.011406011 0.10296254 0.073495194 -0.07021341 0.02168934 0.04171336 0.065294325 -0.01832335
00000000: 10e3 c1bc de1c 413d 9e14 1f3c 83c5 553d
00000010: 9dde c9bd 8a3f a93d 6ea0 82bd 6aba fabc
00000020: abc9 b13c 641c db3d 1cee 11bd 29e9 fd3b
00000030: 416f a2bd 02a0 16bd ee6b cbbc 67ec 5d3d
00000040: 25ff ce3d 2b9d 8b3d 0b7d cbbc 297d 1a3e
00000050: aacf a3bd d5e3 a3bb 6d81 103d 3f88 033c
00000060: a133 553d 1fff 873d e3e3 c83d ee96 1cbc
00000070: c799 d23d d23a eabc aa97 953d 7680 16bd
00000080: cb28 733c 6e07 7bbd c5b9 eabd 55aa c7bd
00000090: e168 bb3d 8bec b73d 3f75 ac3d 2f94 3bbd
000000a0: 5f9f babd 13da 043d a187 68bd 1d44 513d
000000b0: 4a49 84bd b508 b7bd b0d9 a23b 8982 47bb
000000c0: 1d13 753c cca6 86bd fb5b 173d 9af6 66bd
000000d0: 7a20 00ba 98fd 443b 7678 833d 5f63 ab3d
000000e0: ad89 ab3d ccdb 6abd 9676 4e3d 87be 373d
000000f0: c0b9 7cbd b58e 29bd 5c46 87bd 31d9 b43d
00000100: 4839 6b3d c4c9 4e3d c622 9fbc 051c 763d
00000110: 68bd d33d 606d 52bd e7d7 c6bd 038b c1bc
00000120: f1e0 6abc 6967 453d c789 473d 620c 7ebd
00000130: 460d bb3d 80ca 06ba 89a9 79bd 498d a03c
00000140: 4771 58bb b971 53bd 0c21 593d e326 863d
00000150: 4f58 09bd b74a 50bd 8a59 f8bd 30a8 a73d
00000160: 96c7 61bd 5eae 43bd e4b6 213d bf25 d93c
00000170: 4d94 0abe bc31 473d a82e 0e3d c9e1 843c
00000180: 3057 dd3b 2d21 803d ac8a d83c 67b6 1e3b
00000190: 999b 44bc 1068 dbbd 3ae4 01bd 93d0 733d
000001a0: 32c4 893c 784b ac3b 990e e13d 97df a93d
000001b0: cc44 25bd 725a 9d3d 646f a03c 54df 983c
000001c0: 0a90 85bd bf53 1c3d 2e5a 08be 39ce 44bd
000001d0: 7d87 07bb 054a c9bb d359 c93d b93a a53c
000001e0: a900 41bd 609c 173d 3788 3abd 6331 a53d
000001f0: 930a a03d 82db e23c e19c cf3d d0ec 46bd
00000200: c6b8 e6bb c0a9 2d3d ca13 2f3d d327 65bd
00000210: 34d2 0c3d ceb7 4ebd 58c3 b63c 8cf2 31bc
00000220: c2ce fa3c 3df1 dbbc d8c0 23bc 7726 dbbd
00000230: 89a2 163d 717d 85bd ca95 ab3d e1bd 1a3c
00000240: a2c1 bc3c 0dae 98bd 8e1f 1a3c 296a 8ebc
00000250: 0891 423b fb66 4e3d fc10 123c c254 eb3d
00000260: ed83 1bbc 9115 0ebc 7a14 623d fadf 073c
00000270: f8e2 b8bd e232 6e3d 7bd0 8f3d 34e5 ff3c
00000280: 3ac6 75bc 6e82 c2bc cfa3 5a3b 81f1 923d
00000290: ae05 753d 0b34 6c3c 3607 843c 1157 a63d
000002a0: 00ab 213d eeff 093d c329 dfbb b6a5 86bd
000002b0: 9a76 70bc d680 24bd 7781 32bc 35cc c53c
000002c0: 19c2 433d 01be 3abd 2a64 7b3d 5f56 133b
000002d0: 2e2e 91bd 3ca6 e5bc 000f 1a3d 824e 633d
000002e0: b396 a53d 2936 abbc a462 063d 6520 7dbd
000002f0: 8184 04bd 7488 ae39 029a 24bc fc40 f1bc
00000300: 8c3f e33a 266f c43d 4efa 88bc 1715 6f3d
00000310: 5db2 22bd c043 f63d 3a3d c2bb e14c c5bd
00000320: 3e35 0fbd c8c2 bfbc 752c 2cbd 6f40 aebd
00000330: 9b15 5fbd 5286 203d 6461 193d ccb6 1abc
00000340: 0993 67bd 14d1 833d 761c 4b3a d438 05bd
00000350: 47ca 72bc bcd9 2ebc 1b0b 7d3d 8c32 c63d
00000360: d6f0 e03c 7549 babc 1d2c 3c3d 98ad fbbc
00000370: 0715 573d 0024 3c3c ffa8 1539 33c3 d73d
00000380: 7bc0 a83d 675e eebc 34a5 fe3d a426 c33d
00000390: 6422 1abd 1fed e53a a3c0 2a3d 3d04 f63c
000003a0: 5f65 393d 2a35 05bd d4b9 d23d a04f 76bc
000003b0: 439c 993d 8cf8 ae3d 9c8a ce3b ec0b fd3c
000003c0: 0371 03bd eb9e db3d dfeb cebc c41f ce3c
000003d0: f052 c7bc 96d5 2d3c 59eb 3abc 813e 7f3d
000003e0: 47e0 3a3c 06de d23d a684 963d 0ccc 8fbd
000003f0: d8ad b13c a1db 2a3d 08b9 853d da1a 96bc

net.3.bias f4 [128]
0.047247116 0.07636756 0.09112126 0.091530174 0.091176786 0.0617949 0.00408529 -0.032481994
0.016785033 0.053849757 -0.023728369 0.093457274 0.01020432 0.07910137 0.024838448 0.022661086
0.010305004 0.0612327 0.04046756 0.030198036 0.06743772 -0.049278297 -0.051077884 0.06426425
0.0534635 0.040181916 0.0069076573 0.08688286 0.047614485 0.033076473 0.009171243 -0.0044116294
0.044114903 0.05366082 -0.009801474 0.04418775 0.021795576 0.08244037 -0.0070459894 0.016202467
0.061712388 0.05135285 0.030983912 0.012335938 -0.06007656 0.041552603 -0.0594184 0.02381943
-0.044595126 0.034202565 0.07277928 0.033974763 0.058379963 0.027563386 0.076504655 0.055534005
-0.050019663 -0.039204758 0.060200393 0.058150183 0.08197021 -0.0027094954 -0.04914997 -0.052216463
-0.051136978 0.01683366 0.08752093 0.04112831 -0.0045723184 0.08164397 0.0020920835 0.08950707
0.019793972 -0.010109865 0.01656858 0.041559406 -0.05089545 -0.010093093 -0.049286857 0.019887187
0.043804597 0.013467761 0.07257081 -0.012915053 0.01458806 0.08377677 0.03288708 0.04897895
0.08150069 -0.033146735 0.04380395 0.045620438 -0.0144261895 0.058552757 0.03030547 0.04804615
-0.05379839 0.07627332 0.04938498 -0.05316128 -0.04784119 0.055430472 0.021866499 -0.034474492
-0.012803941 0.031117192 -0.027983828 0.040846527 0.018949414 0.00719057 0.02506885 -0.042457514
0.0446377 0.02036111 -0.008923761 0.025442092 0.02087162 0.08078399 0.0028198222 0.07666713
0.032555997 -0.0054877778 -0.032702915 0.053429514 0.08269796 0.054835506 0.030248603 0.015136554
00000000: 3186 413d 9866 9c3d c89d ba3d 2c74 bb3d
00000010: e5ba ba3d a61c 7d3d e5dd 853b d70b 05bd
00000020: c480 893c 9091 5c3d ff61 c2bc 8766 bf3d
00000030: 0530 273c e6ff a13d 007a cb3c bea3 b93c
00000040: 52d6 283c 24cf 7a3d 50c1 253d df61 f73c
00000050: ca1c 8a3d 0ad8 49bd 0b37 51bd fa9c 833d
00000060: 8bfc 5a3d cb95 243d a159 e23b a4ef b13d
00000070: 6807 433d 327b 073d fb42 163c 6e8f 90bb
00000080: d4b1 343d 73cb 5b3d 5d96 20bc 37fe 343d
00000090: a38c b23c 7fd6 a83d 0be2 e6bb 09bb 843c
000000a0: 21c6 7c3d 5e57 523d f9d1 fd3c ad1c 4a3c
000000b0: d712 76bd 1033 2a3d b560 73bd f720 c33c
000000c0: 61a9 36bd fd17 0c3d 4e0d 953d 1f29 0b3d
000000d0: d41f 6f3d 9ccc e13c 79ae 9c3d a077 633d
000000e0: 6be1 4cbd 2b95 20bd b094 763d e32e 6e3d
000000f0: ffdf a73d ca91 31bb 7b51 49bd eee0 55bd
00000100: 0275 51bd bee6 893c 2c3e b33d 2976 283d
00000110: 63d3 95bb f434 a73d 561b 093b 7c4f b73d
00000120: f826 a23c d9a3 25bc d5ba 873c 323a 2a3d
00000130: bf77 50bd 805d 25bc 04e1 49bd 74ea a23c
00000140: 736c 333d e2a7 5c3c 01a0 943d a999 53bc
00000150: c202 6f3c 2893 ab3d 9ab4 063d 279e 483d
00000160: d5e9 a63d dfc4 07bd c56b 333d 7fdc 3a3d
00000170: d35b 6cbc 04d5 6f3d 2d43 f83c 0acc 443d
00000180: b35b 5cbd 3035 9c3d e847 4a3d a4bf 59bd
00000190: 20f5 43bd 100b 633d 5f21 b33c 2035 0dbd
000001a0: 9fc7 51bc 7be9 fe3c 573e e5bc b04e 273d
000001b0: cd3b 9b3c df9e eb3b 305d cd3c eee7 2dbd
000001c0: 05d6 363d 58cc a63c f734 12bc ef6b d03c
000001d0: f6fa aa3c 1472 a53d c4cc 383b a803 9d3d
000001e0: 7059 053d d1d2 b3bb 7ef3 05bd e8d8 5a3d
000001f0: 8c5d a93d 329b 603d ebcb f73c 4fff 773c

net.5.weight f4 [6, 128]
-0.0035847637 -0.076630436 -0.10066188 -0.20278062 -0.10549731 -0.13954431 0.11391751 0.06490479
-0.116244115 0.03322012 -0.3013859 -0.03498689 -0.03252668 -0.090678155 0.14304857 -0.041073285
-0.114126265 0.08858176 -0.10667564 0.07282199 0.030880308 -0.2452748 0.1261505 0.07721432
-0.05138185 0.081980824 -0.18876982 0.029584238 -0.19143128 -0.18761598 -0.101985015 -0.057631377
0.012813046 -0.027407534 0.14126462 0.120767176 0.119148575 -0.007651248 0.052741237 0.030454442
0.017824246 0.026775843 -0.10143126 -0.12867378 -0.068120785 -0.05447926 -0.02219316 -0.11160574
0.0550861 -0.06172992 -0.18633574 0.0026696452 0.12836367 -0.08463702 0.06763173 -0.03654588
0.08264968 0.06776657 0.11737803 0.02973659 -0.1589574 -0.025507208 -0.029990906 0.16598098
0.036640823 0.11705255 -0.001358586 0.11342324 -0.0284678 -0.16757967 -0.17337692 -0.05094481
-0.17224145 0.017423434 0.0024714451 0.1090659 0.03757893 -0.028535008 -0.03550386 -0.092505105
-0.025442664 -0.09847926 0.052331455 0.11848006 0.05395582 -0.1283955 0.07691902 0.090281285
-0.12668255 0.11488214 0.072986886 0.090790056 0.01591605 0.12555428 -0.16738987 -0.17631976
0.103392966 -0.047253035 -0.0033711805 -0.047434285 0.07977066 0.009899168 -0.114357956 0.024849413
-0.08830443 -0.16094247 0.120827496 0.079967044 0.13514526 -0.04498147 0.051704362 -0.0046758633
0.03782686 0.06532411 0.030559529 -0.006615929 -0.14714327 -0.016631851 -0.028263541 -0.010158341
-0.010105473 0.051978283 0.062161025 0.084999844 -0.011053051 -0.10884935 -0.09201538 0.12770239
-0.03754888 -0.20937249 -0.10910178 -0.12363372 0.1339449 -0.12423326 -0.15008916 -0.16827847
0.064891525 -0.0063252253 0.17181748 -0.14511356 0.08004535 0.037757363 0.015976142 -0.097111076
-0.18173778 0.09609567 -0.14771909 0.027793061 0.106669694 0.19411321 0.06330107 -0.12443551
-0.18946183 -0.10210836 -0.34038007 -0.10529274 -0.1488215 -0.111511424 0.16306092 -0.112879194
0.019964771 -0.18193695 -0.06732084 -0.14745662 -0.16501728 0.10307834 -0.08201836 0.0955829
-0.1492117 0.06559138 -0.011945141 -0.10934999 0.043266132 0.0582846 0.026083605 0.17551787
-0.011163675 -0.08335577 -0.1228027 -0.18605292 -0.057787683 -0.15206939 -0.13870558 -0.08899206
-0.034377217 0.07720879 -0.14426573 -0.120343134 0.17177506 0.10015936 -0.061559744 -0.05762171
0.06412467 0.09322298 0.032574646 -0.019699894 0.1401945 -0.2099601 0.018677156 -0.08503456
0.12285974 -0.22043845 -0.1354961 0.10048334 0.012204957 0.044663124 0.027557187 -0.15086485
0.14708227 -0.13789174 -0.0981275 -0.02075903 0.05342402 -0.12025733 0.00498668 -0.057137236
-0.16155693 -0.12613533 0.0636616 -0.08699069 0.09638483 0.003246842 0.059526034 0.108817026
-0.19957426 -0.05553365 0.0050538816 -0.0936228 -0.030327965 0.040765315 -0.12289254 -0.027407588
-0.08742281 0.14847788 -0.1264004 -0.045101196 0.0958551 0.15664326 0.09446299 0.08027543
-0.13832693 -0.034843512 -0.035750363 -0.14598353 -0.12720592 0.12661433 0.15158372 -0.1384101
0.087234706 -0.044935632 0.14075033 -0.005511212 -0.045204166 -0.19333114 0.15069067 -0.11331253
00000000: 5bee 6abb 6bf0 9cbd d127 cebd b9a5 4fbe
00000010: f90e d8bd b4e4 0ebe 954d e93d cdec 843d
00000020: 6511 eebd d211 083d 414f 9abe 6a4e 0fbd
00000030: b23a 05bd 78b5 b9bd 537b 123e 763c 28bd
00000040: 08bb e9bd 5b6a b53d c278 dabd b223 953d
00000050: b3f8 fc3c 5129 7bbe 992d 013e 8b22 9e3d
00000060: c675 52bd 90e5 a73d e04c 41be a55a f23c
00000070: 9006 44be 671e 40be 85dd d0bd e10e 6cbd
00000080: cfed 513c c485 e0bc aca7 103e c854 f73d
00000090: 2b04 f43d 52b7 fabb 3207 583d 987b f93c
000000a0: 2704 923c 0359 db3c 31bb cfbd 0fc3 03be
000000b0: e982 8bbd a525 5fbd 6ece b5bc 8d91 e4bd
000000c0: f6a1 613d 83d8 7cbd ccce 3ebe 37f5 2e3b
000000d0: c471 033e 2d56 adbd 8182 8a3d 22b1 15bd
000000e0: 3c44 a93d 33c9 8a3d e563 f03d 269a f33c
000000f0: bbc5 22be 7ef4 d0bc 7daf f5bc ebf6 293e
00000100: b014 163d 3fb9 ef3d 9512 b2ba 724a e83d
00000110: 4e35 e9bc 019a 2bbe b889 31be 81ab 50bd
00000120: 1060 30be 97bb 8e3c f8f7 213b f15d df3d
00000130: 5dec 193d 40c2 e9bc 7f6c 11bd 5173 bdbd
00000140: 226d d0bc 7faf c9bd 8259 563d aca5 f23d
00000150: c700 5d3d 1c7a 03be b887 9d3d 65e5 b83d
00000160: 12b9 01be 5447 eb3d 267a 953d 23f0 b93d
00000170: 6062 823c 4d91 003e 4068 2bbe 2b8d 34be
00000180: b1bf d33d 668c 41bd 06ef 5cbb 744a 42bd
00000190: cd5e a33d 1f30 223c 8134 eabd ff90 cb3c
000001a0: f4d8 b4bd 1ace 24be 6874 f73d c3c5 a33d
000001b0: 8563 0a3e 7d3e 38bd f4c7 533d fc37 99bb
000001c0: 56f0 1a3d a6c8 853d fa57 fa3c 6fca d8bb
000001d0: baac 16be 853f 88bc f188 e7bc 2c6f 26bc
000001e0: 6d91 25bc 2ee7 543d 8f9c 7e3d 6614 ae3d
000001f0: db17 35bc 68ec debd 8f72 bcbd 6ac4 023e
00000200: dbcc 19bd be65 56be c170 dfbd ad33 fdbd
00000210: da28 093e 026e febd f9b0 19be 3151 2cbe
00000220: d9e5 843d d643 cfbb ecf0 2f3e a698 14be
00000230: d1ee a33d 77a7 1a3d 66e0 823c 2ce2 c6bd
00000240: 7819 3abe cecd c43d ac43 17be 46ae e33c
00000250: a475 da3d 9dc5 463e fea3 813d 0bd8 febd
00000260: 4802 42be 301e d1bd 4c46 aebe b8a3 d7bd
00000270: aa64 18be 1a60 e4bd 71f9 263e 352d e7bd
00000280: 298d a33c ae4d 3abe 82df 89bd defe 16be
00000290: 4afa 28be bd1a d33d 3ef9 a7bd f8c0 c33d
000002a0: f4ca 18be c654 863d 8db5 43bc e3f2 dfbd
000002b0: d437 313d d5bb 6e3d 49ad d53c f5ba 333e
000002c0: d9e7 36bc 6eb6 aabd fb7f fbbd a884 3ebe
000002d0: c7b2 6cbd 14b8 1bbe d608 0ebe 7841 b6bd
000002e0: 20cf 0cbd a41f 9e3d 65ba 13be 7676 f6bd
000002f0: cde5 2f3e 5a20 cd3d 1226 7cbd be04 6cbd
00000300: cc53 833d b1eb be3d fe6c 053d ac61 a1bc
00000310: 268f 0f3e c8ff 56be d600 993c 9926 aebd
00000320: e39d fb3d 9eba 61be 7dbf 0abe 36ca cd3d
00000330: 4df7 473c aef0 363d 9cbf e13c 517c 1abe
00000340: bc9c 163e 7e33 0dbe 12f7 c8bd d70e aabc
00000350: 25d3 5a3d 7a49 f6bd 4e67 a33b bc08 6abd
00000360: 2e6f 25be 9f29 01be 0361 823d 2d28 b2bd
00000370: 6965 c53d f8c8 543b 92d1 733d 76db de3d
00000380: 325d 4cbe 4177 63bd 089b a53b 50bd bfbd
00000390: 5a72 f8bc 88f9 263d 16af fbbd e185 e0bc
000003a0: bb0a b3bd 960a 183e 1b6f 01be 08bc 38bd
000003b0: ae4f c43d 1767 203e d075 c13d 7267 a43d
000003c0: 93a5 0dbe 12b8 0ebd f96e 12bd b57c 15be
000003d0: 4542 02be 30a7 013e c338 1b3e 61bb 0dbe
000003e0: 1ca8 b23d 6d0e 38bd db20 103e 6697 b4bb
000003f0: 0128 39bd 99f8 45be a84e 1a3e 6610 e8bd

net.5.bias f4 [6]
0.015181483 0.063311115 0.095481835 0.0623929 -0.051826447 0.039883744
00000000: c1bb 783c 42a9 813d fb8b c33d b38f 7f3d
00000010: f847 54bd 235d 233d
