MFCC/MFCC/mfcc_baseline_model.pt (torch, 451943 bytes, 22 tensors)

net.0.weight f4 [32, 1, 3, 3]
0	0x3d9e3f32	0.07726897
1	0xbe68b354	-0.22724658
2	0x3e82d1a7	0.25550577
3	0x3de67dff	0.112545006
4	0x3e8b7a72	0.27241856
5	0x3e5c1e0a	0.21495834
6	0xbe95aa37	-0.29231426
7	0xbe1243d1	-0.14283682
8	0xbecb02f4	-0.3965069
9	0xbe50b73a	-0.20382395
10	0xbe3830ea	-0.17987409
11	0x3e9e1983	0.3087884
12	0xbe95c18e	-0.29249233
13	0xbe2753ad	-0.16340514
14	0x3d587821	0.05284894
15	0x3e7644d1	0.24049689
16	0xbe2c1a36	-0.16806874
17	0xbe733cd7	-0.23753677
18	0x3e9b6f76	0.30358475
19	0xbdc27b56	-0.09496181
20	0x3dc774e1	0.0973909
21	0xbe92ce9b	-0.28673252
22	0xbe803d6e	-0.25046867
23	0x3dc847e0	0.09779334
24	0xbd833d39	-0.06408162
25	0x3e91eb5d	0.2849988
26	0x3aff43a5	0.0019475116
27	0xbe84d2bc	-0.25942028
28	0xb9d7847d	-0.00041106707
29	0xbbb9ff5f	-0.0056761946
30	0xbea73fe8	-0.32665944
31	0xbe70266b	-0.23452155
32	0x3e823aaa	0.25435382
33	0x3df069c7	0.117389254
34	0xbdac3864	-0.08409193
35	0xbe838e93	-0.25694713
36	0x3e2492a1	0.1607156
37	0xbe430b36	-0.19047245
38	0xbe513293	-0.20429449
39	0x3e18b478	0.14912593
40	0x3e8cab47	0.27474424
41	0xbd52102c	-0.051284954
42	0xbe525493	-0.20540075
43	0xbeafe9d9	-0.343581
44	0x3e697d31	0.22801663
45	0x3e42f661	0.19039299
46	0xbe136c89	-0.14396872
47	0x3e43dc6d	0.19127055
48	0xbdc1cba6	-0.09462671
49	0xbe9c72c6	-0.30556315
50	0x3de8162e	0.113323554
51	0xbe766e5c	-0.24065536
52	0xbe90c0a8	-0.28271985
53	0xbe502757	-0.20327507
54	0x3ddfcf72	0.10928239
55	0xbe80f2ea	-0.2518533
56	0x3d671472	0.056415983
57	0x3e71cf27	0.23614179
58	0xbea43391	-0.32070592
59	0xbdf0aad2	-0.117513314
60	0x3e4834e4	0.19551426
61	0xbdc80dd5	-0.09768263
62	0x3db4f574	0.08835879
63	0x3e7f7f6b	0.2495095
64	0x3cbc6dc3	0.023001557
65	0xbebdcddc	-0.3707112
66	0xbe813ae4	-0.25240242
67	0xbddbda47	-0.107349925
68	0xbd3962e8	-0.04526034
69	0xbe9cbe2f	-0.3061385
70	0xbddcbe44	-0.10778478
71	0xbed4bd26	-0.4155056
72	0xbe3b1914	-0.18271285
73	0x3e47cfc6	0.19512853
74	0x3cf8fcbe	0.030393954
75	0x3e11f487	0.14253436
76	0xbe9c13b3	-0.3048378
77	0x3ea402d2	0.32033402
78	0xbe84b83a	-0.25921804
79	0x3d7241b2	0.059144683
80	0x3dfa076b	0.12208446
81	0x3e629dd0	0.22130513
82	0xbe9a6d10	-0.30161333
83	0x3e5731ce	0.21015093
84	0x3e94b6f5	0.29045835
85	0x3d3c08ac	0.045906708
86	0xbe06665f	-0.13124989
87	0x3e8dac45	0.27670494
88	0xbe953871	-0.29144624
89	0x3e805a9a	0.25069124
90	0xbdc4581d	-0.09587119
91	0xbe376765	-0.17910536
92	0x3deadccf	0.11467897
93	0x3e815621	0.25261024
94	0x3e1bc042	0.1521006
95	0x3e4af499	0.19819869
96	0x3c203ab5	0.009779622
97	0x3e71d1ad	0.23615141
98	0x3e9a0375	0.30080763
99	0xbe01e37e	-0.12684438
100	0x3c1a3308	0.009411581
101	0xbd6be7b2	-0.05759401
102	0x3d23af1b	0.039961915
103	0x3da3a084	0.079896
104	0xbe377a6c	-0.17917794
105	0x3ea16f90	0.31530428
106	0xbd0b63ac	-0.0340306
107	0x3ec6062a	0.38676578
108	0x3e9318c0	0.2872982
109	0x3d9b03da	0.07569094
110	0x3e83993f	0.25702855
111	0xbe4cd8e6	-0.20004615
112	0x3e5460d9	0.2074007
113	0x3e903a7b	0.28169617
114	0xbe7ff721	-0.24996616
115	0xbeb88acd	-0.36043397
116	0x3c8b6c1b	0.017019322
117	0x3c362279	0.011116617
118	0xbb6c5354	-0.003606041
119	0x3db7be9f	0.08971905
120	0x3d97742c	0.07395205
121	0x3d37c23c	0.04486297
122	0x3ea3e6d6	0.3201205
123	0x3eaaaad9	0.3333347
124	0xbd608314	-0.054812506
125	0x3d01ed0e	0.031720214
126	0x3e966a93	0.29378185
127	0xbe22efff	-0.15911864
128	0x3e3603b3	0.17774849
129	0xbd6a2598	-0.05716476
130	0x3e96d16d	0.29456654
131	0x3e742620	0.23842669
132	0xbd4d0f50	-0.05006343
133	0x3ebe9e5e	0.372302
134	0x3e2b3fef	0.16723607
135	0x3e008f3a	0.12554637
136	0xbe88a1eb	-0.26686034
137	0xbe46e085	-0.19421585
138	0x3d9feeb7	0.07809203
139	0x3e738cc8	0.23784173
140	0xbea2c215	-0.31788698
141	0xbe533147	-0.20624267
142	0x3d5439ba	0.051812865
143	0xbe81252a	-0.25223666
144	0x3be4389f	0.0069647576
145	0x3e1affdd	0.15136667
146	0xbbc7cf24	-0.006097691
147	0xbe0de3af	-0.13856386
148	0x3e5bce0f	0.21465324
149	0xbe4dbce4	-0.20091587
150	0xbcc076ca	-0.023494143
151	0xbea02a90	-0.31282473
152	0xbe032914	-0.12808639
153	0xbe5b0e28	-0.21392119
154	0xbe3aac8b	-0.18229882
155	0xbe6a9cba	-0.22911349
156	0xbd984c84	-0.07436469
157	0xbd6460a8	-0.05575624
158	0xbeac7409	-0.33682278
159	0xbeb366dc	-0.35039413
160	0x3d9f3bc8	0.07775074
161	0xbe13290d	-0.14371128
162	0x3ec37ac9	0.38179615
163	0x3df8aad5	0.121419586
164	0x3e8f2539	0.27958086
165	0xbe43cd4a	-0.1912128
166	0xbe858be7	-0.260833
167	0xbe962a5b	-0.2932919
168	0x3e139b28	0.14414656
169	0x3d79d99a	0.060998537
170	0xbe50f120	-0.20404482
171	0x3ce6b6eb	0.028163394
172	0x3e9a8eb5	0.30187002
173	0x3da9694a	0.082720354
174	0xbe6bcbe0	-0.23026991
175	0x3e995898	0.29950404
176	0xbe3a7fef	-0.18212865
177	0x3e95bcff	0.29245755
178	0x3e117ad2	0.14207008
179	0x3e1b1771	0.15145661
180	0x3c4f15cb	0.012639473
181	0xbd02dcd3	-0.031948876
182	0x3b8c7ffb	0.0042877174
183	0x3da9f210	0.08298123
184	0x3ea7893c	0.3272189
185	0xbe987030	-0.29773092
186	0x3e0f1c85	0.13975723
187	0x3e506427	0.20350705
188	0xbd67e35c	-0.05661331
189	0x3c29fb79	0.010374897
190	0xbdb4b740	-0.08824015
191	0x3e208364	0.15675122
192	0xbda0a62c	-0.07844195
193	0x3dea6afa	0.114461854
194	0x3d7dac16	0.061931692
195	0x3ebee3b3	0.37283096
196	0x3eadb579	0.33927515
197	0x3edb6742	0.42852217
198	0x3dba2652	0.0908934
199	0x3dbea648	0.093090594
200	0xbd0bc669	-0.034124766
201	0xbe05ea60	-0.13077688
202	0x3e3dd86b	0.18539588
203	0xbea58b64	-0.3233291
204	0x3e46404c	0.19360465
205	0x3c05a00b	0.008155833
206	0x3e58f705	0.2118798
207	0x3d2e028e	0.042482905
208	0xbd254470	-0.04034847
209	0x3ea4e9f9	0.32209757
210	0x3cb9b9bb	0.022671571
211	0xbdc9c9d8	-0.09852952
212	0x3dca48f1	0.09877194
213	0x3e8e68f9	0.27814463
214	0xbd8467d2	-0.06465115
215	0x3e75eaa4	0.2401529
216	0x3d5ad44e	0.053425126
217	0xbdde4a36	-0.10853998
218	0xbe4fa1a6	-0.20276508
219	0x3d947b5d	0.07250092
220	0x3edda965	0.432933
221	0x3e3a0cad	0.18168898
222	0x3e7da1d6	0.24768767
223	0x3e8eaa1c	0.27864158
224	0xbe6be997	-0.23038326
225	0x3dd57a78	0.1042375
226	0x3e8e6a22	0.27815348
227	0xbdd3cc55	-0.103417076
228	0xbe87126a	-0.26381236
229	0x3e97db91	0.29659703
230	0xbdfd214b	-0.12359866
231	0xbda2c3c4	-0.079474956
232	0xbe484257	-0.19556557
233	0x3e5523b9	0.20814408
234	0x3c8e5fd5	0.01737968
235	0x3da587cc	0.08082542
236	0xbe60baa3	-0.21946196
237	0x3df0120a	0.11722191
238	0x3eafbea6	0.3432514
239	0xbe1dfaa4	-0.15427643
240	0x3e323ee8	0.1740681
241	0x3dcfe8a1	0.10151792
242	0x3ec7f03e	0.39050478
243	0xbe4b047b	-0.19825928
244	0x3dc1ec68	0.09468919
245	0xbe823b0b	-0.2543567
246	0x3d7c869c	0.06165181
247	0x3eaceb70	0.33773375
248	0x3e9718f5	0.29511228
249	0xbbfe56a3	-0.0077617927
250	0x3e8c574b	0.2741035
251	0xbe5979e2	-0.21237901
252	0x3e8ae971	0.27131227
253	0x3e82ee36	0.25572366
254	0xbea67e3e	-0.3251819
255	0x3e96a5dd	0.2942342

net.0.bias f4 [32]
0	0x3e9e53c9	0.30923298
1	0xbe1ecc16	-0.1550754
2	0x3e4036f9	0.1877097
3	0xbe9354e2	-0.28775698
4	0x3e744ab4	0.23856622
5	0xbe15237b	-0.14564316
6	0x3dc59be3	0.09648874
7	0xbe75e836	-0.24014363
8	0x3da49e50	0.08038008
9	0x3dfeab59	0.12435026
10	0x3e50f7f8	0.20407093
11	0x3e5e5cb4	0.21715051
12	0xbea3d935	-0.32001653
13	0x3ddab423	0.106788896
14	0x3e1f29d6	0.15543303
15	0xbe9384c7	-0.2881224
16	0x3dbf5d20	0.09343934
17	0xbe55b42b	-0.2086951
18	0x3e9abbbf	0.30221364
19	0x3e5bd942	0.21469596
20	0x3e9b1108	0.3028643
21	0xbe258625	-0.16164453
22	0xbe915f4a	-0.28393012
23	0x3d2c0506	0.04199698
24	0xbe289848	-0.1646434
25	0x3e3a0533	0.18166046
26	0xbe8ab5df	-0.27091882
27	0x3e85c2e7	0.2612526
28	0xbe23de05	-0.16002662
29	0x3d6cc519	0.057805154
30	0xbdf5e1cf	-0.1200596
31	0x3cfe1058	0.031013653

net.1.weight f4 [32]
0	0x3f9e6b6b	1.2376531
1	0x3f70832d	0.9395016
2	0x3f7a0070	0.9765692
3	0x3f5fefcd	0.8747528
4	0x3f6cb270	0.92459774
5	0x3f81042d	1.0079399
6	0x3f6c219a	0.9223877
7	0x3f89481a	1.0725129
8	0x3f90eebf	1.132286
9	0x3f8a0250	1.0781956
10	0x3f78bc4c	0.9716232
11	0x3f65abb3	0.8971512
12	0x3f8dd009	1.1079112
13	0x3f8ea2c1	1.1143419
14	0x3f8a0835	1.0783755
15	0x3f6be6df	0.92149156
16	0x3f79934a	0.9749037
17	0x3f7a7568	0.978354
18	0x3f7a4f8b	0.9777762
19	0x3f80140d	1.0006119
20	0x3f7930b7	0.9733996
21	0x3f8ca37b	1.098739
22	0x3f6db7d6	0.92858636
23	0x3f85b9d2	1.0447333
24	0x3f4f958f	0.81087583
25	0x3f807729	1.0036365
26	0x3f717e1e	0.94333065
27	0x3f6bb898	0.9207854
28	0x3f85b1a7	1.044484
29	0x3f70fd1c	0.94136214
30	0x3f7e54e2	0.9934827
31	0x3f7254e7	0.946608

net.1.bias f4 [32]
0	0x3de1f207	0.11032491
1	0xba2a1a0b	-0.0006488866
2	0xba61d702	-0.00086151075
3	0xbd3390c8	-0.043839246
4	0x3e063d33	0.13109283
5	0xbdf3a6d9	-0.11897058
6	0x3c592dad	0.013255519
7	0x3c3ce2b7	0.011528662
8	0x3c457e63	0.012054059
9	0xbc81d25e	-0.015847381
10	0x3cdbd943	0.026836997
11	0x3e66d627	0.2254263
12	0x3de76825	0.11299161
13	0xbcc0ba2c	-0.023526274
14	0xbdd0eb70	-0.10201156
15	0xbdaae465	-0.08344344
16	0x3d85b5af	0.06528794
17	0x3d926cb8	0.07149643
18	0xbd305701	-0.043051723
19	0xbb8406ca	-0.0040291296
20	0xbd98120e	-0.07425319
21	0x3dee6d0e	0.11641894
22	0x3d0006ec	0.0312566
23	0x3c24a17e	0.010048268
24	0xbe0f2d9b	-0.13982241
25	0xbd822399	-0.06354446
26	0x3c68939c	0.014195349
27	0x3e0ff6a8	0.14058936
28	0xbd74c606	-0.059759162
29	0x3d985dfb	0.074398
30	0xbd40e7b6	-0.047095977
31	0x3cea24aa	0.028581936

net.1.running_mean f4 [32]
0	0xc044f705	-3.0775769
1	0x4001193b	2.017165
2	0x3f57e10a	0.8432776
3	0x4012cf6e	2.2939105
4	0xbf056dff	-0.52120966
5	0xbd7535f6	-0.059865914
6	0x3fbbf87d	1.4685208
7	0x3ff03632	1.8766539
8	0xbf56a840	-0.8385048
9	0xbfad7ef4	-1.3554368
10	0xbfd926ad	-1.6964928
11	0x3fb44a7d	1.4085232
12	0xc093e04e	-4.621131
13	0xc0114340	-2.2697296
14	0xc054fded	-3.3279984
15	0x3f909eb6	1.1298435
16	0xbe144719	-0.14480247
17	0x4095e550	4.6842422
18	0x3dea2d38	0.11434406
19	0xbf8c53cc	-1.0963073
20	0xbd7bb3ef	-0.061450895
21	0xbf3b5000	-0.73168945
22	0x3eb1acb3	0.34702072
23	0xbfbaa496	-1.4581478
24	0xc007682a	-2.1157327
25	0xbf3c1c22	-0.7348043
26	0xbf876ad2	-1.0579474
27	0xbfa78d0f	-1.3089923
28	0xc03ed4f2	-2.9817472
29	0x3d38c21a	0.045106985
30	0xbdf33674	-0.118756205
31	0x3fc2857f	1.519699

net.1.running_var f4 [32]
0	0x441f06f7	636.1088
1	0x432bae08	171.67981
2	0x43d28fa7	421.12228
3	0x431457a5	148.34236
4	0x439c0bc3	312.0919
5	0x432e6d43	174.4268
6	0x428fe5e5	71.94901
7	0x430c91d1	140.5696
8	0x4215e133	37.46992
9	0x424f63e6	51.847557
10	0x43ce1e49	412.2366
11	0x42b6f49d	91.47776
12	0x44128229	586.03375
13	0x4338f734	184.96564
14	0x43829f0a	261.2425
15	0x4310383e	144.2197
16	0x425f6ef9	55.85837
17	0x44068119	538.01715
18	0x44c4c16b	1574.0443
19	0x4389eca7	275.84885
20	0x4182b6c8	16.339249
21	0x42aff2bb	87.97408
22	0x432f6283	175.38481
23	0x43015608	129.33606
24	0x44212376	644.5541
25	0x42e55589	114.66706
26	0x42ef6c67	119.71172
27	0x4447130f	796.2978
28	0x4372d1a3	242.8189
29	0x4463c6a6	911.1039
30	0x40a41a99	5.128247
31	0x42e3e2e3	113.94314

net.3.weight f4 [64, 32, 3, 3]
0	0x3ca3e625	0.020007202
1	0xbc9823d7	-0.018571777
2	0xbd8730a9	-0.06601078
3	0x3c03d2b1	0.008045838
4	0x3d044116	0.032288633
5	0x3c90d399	0.017679023
6	0xbe245cc8	-0.16051018
7	0xbdadaba7	-0.08480006
8	0xbe2cb61b	-0.16866343
9	0xbcef5e0f	-0.029219655
10	0xbce69246	-0.02814592
11	0xbcf7498a	-0.030186433
12	0x3b8f700a	0.00437737
13	0x3d328597	0.043584432
14	0xbcb31cd1	-0.021864327
15	0xbbd05e57	-0.0063589024
16	0x3d474920	0.04865372
17	0xb852af74	-5.0231305e-05
18	0xbd6a68c9	-0.057228837
19	0xbd1ac34d	-0.03778391
20	0xbd871e0d	-0.065975286
21	0xbc85ad2f	-0.016317932
22	0xbcea5eb9	-0.02860962
23	0xbd73a006	-0.059478782
24	0xbdba6a79	-0.09102339
25	0x3c06b4d0	0.00822182
26	0x3c67909f	0.014133601
27	0x3d0c36e0	0.03423202
28	0x3cc5d5a9	0.024149733
29	0xbcce77df	-0.025203643
30	0xbd87504b	-0.066071115
31	0xbc7aba5a	-0.015303219
32	0x3c0bff5c	0.008544769
33	0x3d07e1ac	0.0331742
34	0x3cc8252e	0.024431791
35	0xbdab50a9	-0.08364994
36	0xbceec5f4	-0.029147126
37	0xbc9fa026	-0.019485544
38	0xbd115804	-0.03548433
39	0x3d29b875	0.041435678
40	0x3b28385c	0.0025668358
41	0x3a20676d	0.0006118927
42	0xbd8674ca	-0.065652445
43	0xbd57cd86	-0.052686237
44	0xbd0a9439	-0.033832762
45	0x3d4ae0c3	0.049530756
46	0x3d98fe2f	0.07470357
47	0xbc5b8710	-0.013398901
48	0x3d08c410	0.033390105
49	0xbd3df4ed	-0.046376158
50	0x3ce2da60	0.02769202
51	0x3d9cca19	0.076557346
52	0x3d395fec	0.045257494
53	0xbc4d4d63	-0.012530657
54	0xbdc5f82f	-0.09666478
55	0x3c37a19c	0.011207964
56	0xbd794957	-0.060860958
57	0xbd54e798	-0.051978678
58	0xbd8fa258	-0.070133865
59	0x3c917f5c	0.017760925
60	0xbd1a9015	-0.037735064
61	0xbcf57781	-0.02996421
62	0xbdc2ba90	-0.0950824
63	0x3d86eedd	0.06588528
64	0xbcb1fc76	-0.021726828
65	0xbd23dae8	-0.040003687
66	0xbd05a6aa	-0.032629646
67	0xbd98a6f5	-0.074537195
68	0x3d04110d	0.032242823
69	0x3c249b72	0.010046827
70	0x3d74aba6	0.05973401
71	0x3d964b24	0.07338551
72	0x3b795fca	0.003805148
73	0xbd85006d	-0.06494222
74	0xbdc8ea5b	-0.09810325
75	0xbd4ed726	-0.05049815
76	0x3cd675e7	0.026179267
77	0xbda282d5	-0.079351105
78	0xbd839dd9	-0.064265914
79	0xbdeb5cbf	-0.11492299
80	0xbda145e1	-0.078746565
81	0x3d8555ad	0.06510482
82	0x3dcb121d	0.09915564
83	0x3cc600be	0.024170276
84	0xbd3cad8e	-0.046063952
85	0x3d4609cf	0.048349198
86	0x3cb9c6f4	0.022677876
87	0x3cfea34c	0.031083725
88	0x3d87433a	0.06604619
89	0xbc008b3f	-0.007845699
90	0xbde5a331	-0.11212767
91	0xbd7b4f72	-0.06135506
92	0xbde45243	-0.11148503
93	0xbb88a061	-0.0041695093
94	0x3d50f39d	0.051013578
95	0xbd3d044c	-0.046146676
96	0x3cdf93f2	0.027292226
97	0x3a670194	0.0008812186
98	0x3d0212dd	0.03175627
99	0xbd14b931	-0.036309425
100	0x3d136282	0.035982616
101	0xbc202496	-0.009774348
102	0x3cfa84b9	0.030580865
103	0xbcb170cc	-0.021660231
104	0xbc15f1ed	-0.009151918
105	0xbcae8a88	-0.021306291
106	0x3ce1590b	0.02750828
107	0x3d31391a	0.043267347
108	0x3dc5b1e9	0.09653074
109	0x3d2f3a6d	0.04278033
110	0x3dae4cb9	0.085107274
111	0x3cab8831	0.020938965
112	0xbd1c9838	-0.038231105
113	0xbd558510	-0.05212885
114	0xbd055f60	-0.03256166
115	0x39990867	0.00029188694
116	0xbd8e1d42	-0.06939174
117	0xbd3d3973	-0.046197366
118	0xbd870b27	-0.06593924
119	0xbdf550bf	-0.11978292
120	0x3cd07f0b	0.025451204
121	0xbc70b934	-0.014692593
122	0xbc65517e	-0.01399648
123	0x3daa253f	0.083078854
124	0xbd664aea	-0.056223787
125	0xbba4d859	-0.0050306735
126	0x3d1d0dec	0.038343355
127	0xbd0c6717	-0.034278
128	0xbcb295ff	-0.02180004
129	0x3db32c0f	0.08748638
130	0x3c97a53e	0.01851141
131	0x3cbd410d	0.023102308
132	0x3cf69a8e	0.030102994
133	0xba887267	-0.0010410071
134	0x3bb3b316	0.005483995
135	0x3dbd41a8	0.092410386
136	0x3d5555a9	0.052083645
137	0x3c9d4574	0.019198157
138	0x3baa263a	0.0051925452
139	0xbd80f154	-0.0629603
140	0xbd5e3ba1	-0.054256085
141	0xbd97359c	-0.07383272
142	0x3cb63e86	0.02224661
143	0xbcca16ed	-0.024669135
144	0x3caa8156	0.020813625
145	0x3c98decc	0.018660925
146	0x3d8ec13f	0.069704525
147	0xbd035394	-0.03206213
148	0xbd60ac65	-0.05485191
149	0xbd73cd87	-0.059522178
150	0x3d5eb6c5	0.05437352
151	0x3d73e7de	0.059547298
152	0x3c59070f	0.013246312
153	0xbc9010d9	-0.017586159
154	0x3d6f1b90	0.058375895
155	0xbd236185	-0.039887924
156	0xbbc01ffc	-0.005863188
157	0xbab78ce7	-0.0014003784
158	0xbc994752	-0.018710766
159	0x3cf82a3b	0.030293575
160	0xbd548f2f	-0.051894363
161	0xbc35c02c	-0.011093181
162	0xbc59d300	-0.013294935
163	0xbd47a172	-0.04873795
164	0xbcb3d09e	-0.021950062
165	0xbdb19585	-0.08671097
166	0xbd290425	-0.04126372
167	0xbd8af4bf	-0.06784963
168	0x3d470662	0.04859007
169	0x3ba96bd8	0.0051703267
170	0x3ce440c8	0.027862921
171	0xbc0477e0	-0.008085221
172	0x3d893c20	0.06700921
173	0x3dabecc2	0.08394767
174	0xbda0ebd3	-0.0785748
175	0xbccda27b	-0.02510189
176	0xbdb945dd	-0.090465285
177	0x3db285f9	0.087169595
178	0x3d22d418	0.03975305
179	0x3c12ea6f	0.008967026
180	0xbd357e77	-0.04431006
181	0xbd8acbd1	-0.06777156
182	0x3c6aaae0	0.014322966
183	0xbcd1f8fe	-0.025631424
184	0xbdbaae26	-0.091152474
185	0xbdb88dff	-0.090114586
186	0x3db1e39d	0.08685992
187	0x3d4f70b0	0.050644577
188	0x3ca47063	0.020073121
189	0x3cb34a0a	0.02188589
190	0x3c99abee	0.01875874
191	0x3c8d2f81	0.017234566
192	0xbbf2bc00	-0.0074076653
193	0xbca4ec26	-0.020132136
194	0xbd54ecc2	-0.051983602
195	0x3e01244b	0.12611501
196	0x3da71d96	0.0815994
197	0x3d27aefc	0.040938362
198	0xbd11a46e	-0.035557203
199	0xbd6ce9c3	-0.05784012
200	0xba84f01f	-0.0010142362
201	0xbd871ccd	-0.0659729
202	0x3cb1ad44	0.021689065
203	0xbc5c534b	-0.013447593
204	0xbccf499f	-0.02530366
205	0x3c83e23e	0.016099092
206	0x3da75872	0.081711665
207	0x3af7516e	0.0018868872
208	0x3d7da915	0.061928827
209	0x3bb7029a	0.005585027
210	0x3bdaa770	0.006672792
211	0xbcac7dd1	-0.021056088
212	0xbca73b3c	-0.020413987
213	0x3d1d90ff	0.038468357
214	0x3dce2b35	0.10066835
215	0xbc9323a8	-0.017961338
216	0xbd24b3bd	-0.040210474
217	0x3b69b30a	0.0035659694
218	0x3d57eebc	0.05271791
219	0xbde033d8	-0.109473884
220	0xbd9ae230	-0.07562673
221	0xbd6e2cdb	-0.058148246
222	0xbcf11340	-0.029428124
223	0xba80574c	-0.0009791641
224	0xbd4bbaee	-0.049738817
225	0xbc02b26d	-0.00797711
226	0xbd53958e	-0.0516563
227	0xbd0f32c9	-0.034960542
228	0xbda976ee	-0.08274637
229	0xbe095185	-0.13410003
230	0xbd5d55ad	-0.054036785
231	0xbcd30320	-0.025758326
232	0xbcda422f	-0.026642887
233	0xbd1f4ae8	-0.038889796
234	0x3ca3fd00	0.0200181
235	0xbd6fd723	-0.05855478
236	0xbd6f8695	-0.058477957
237	0xbd937beb	-0.0720137
238	0xbc04da0f	-0.00810863
239	0x3cbd6a1d	0.023121888
240	0x3d55c6bc	0.05219148
241	0x3d3fba4c	0.046808526
242	0x3db6f0c4	0.08932641
243	0xbe0deb28	-0.13859236
244	0xbe0ae67e	-0.13564488
245	0xbe6024bb	-0.21889012
246	0x3d1da1bd	0.038484324
247	0xbd8dc901	-0.06923104
248	0xbd1206fe	-0.0356512
249	0xbca67c38	-0.020322904
250	0x3cdfc788	0.027316824
251	0xbc3f297d	-0.011667606
252	0x3d540a31	0.05176753
253	0xbb55d425	-0.0032627669
254	0xbcb7c31f	-0.022431908
255	0x3ce31637	0.027720554

net.3.bias f4 [64]
0	0xbd983d18	-0.07433528
1	0x3cd69e43	0.026198512
2	0x3d728209	0.059206042
3	0x3c483062	0.012218567
4	0xbd323723	-0.043509614
5	0x3dbdb585	0.09263138
6	0xbcbfcce9	-0.023413138
7	0xbd8fca29	-0.07020981
8	0x3c9060aa	0.017624218
9	0x3ba13bbe	0.004920452
10	0x3d5e1a5a	0.05422435
11	0x3d2b5d82	0.041837223
12	0xbd6e4946	-0.058175348
13	0x3cfc8473	0.030824875
14	0x3c582f8a	0.013194928
15	0x3d2faa45	0.04288699
16	0xbd2807dd	-0.041023124
17	0xbc0f8d0b	-0.008761655
18	0x3d625ac8	0.055262357
19	0x3d23bcd6	0.03997501
20	0x3c2c485a	0.010515297
21	0x3d97bf36	0.074095175
22	0x3e174923	0.14773993
23	0xbcf1e054	-0.029525913
24	0xbd884b39	-0.066549726
25	0xbc021e2d	-0.007941765
26	0xbcac07ac	-0.020999752
27	0x3e043664	0.12911373
28	0xbb8b77ed	-0.0042562396
29	0x3d0777eb	0.033073347
30	0x3c831e1c	0.016005568
31	0x3b281224	0.0025645578
32	0x3d20c59e	0.039250962
33	0x3dadc47d	0.08484743
34	0x3ce4d9b2	0.027935836
35	0x3d38339a	0.044971086
36	0xb9b86a4a	-0.00035174406
37	0xbd407e43	-0.046995413
38	0xbcf541a7	-0.029938532
39	0x3ce99efc	0.028518192
40	0xbc8fcf34	-0.017554857
41	0x3bf32561	0.0074202274
42	0xbac41998	-0.0014961241
43	0xbdd7c8a9	-0.1053632
44	0x3b9e1539	0.0048243073
45	0xbd82725c	-0.063694686
46	0x3c820b2c	0.015874468
47	0x3de8a0fa	0.11358829
48	0xbc576c2b	-0.013148348
49	0x3d7c13c4	0.061542287
50	0x3d32ee81	0.043684486
51	0x3ca0d83f	0.019634364
52	0x3d888377	0.066657
53	0x3d081683	0.033224594
54	0x3ce58197	0.028015895
55	0x3b78409c	0.0037880307
56	0x3b80d598	0.0039317124
57	0xbcf8c11b	-0.030365517
58	0x3cdc60b9	0.02690159
59	0x3b266ace	0.002539325
60	0x3d8798fe	0.06620978
61	0x3d96f255	0.0737044
62	0x3bb22ce9	0.0054374826
63	0x3d588cf2	0.05286879

net.4.weight f4 [64]
0	0x3f844aa5	1.033528
1	0x3f85191b	1.0398287
2	0x3f82326e	1.017164
3	0x3f75b08c	0.95972514
4	0x3f7ef9e5	0.9960006
5	0x3f4d9d8f	0.8031854
6	0x3f8a96da	1.0827286
7	0x3f7f60d4	0.99757123
8	0x3f7cb0b5	0.98707134
9	0x3f808336	1.0040042
10	0x3f826aee	1.0188882
11	0x3f83932b	1.0279287
12	0x3f7cf420	0.98810005
13	0x3f7e5d78	0.9936137
14	0x3f847ccc	1.0350585
15	0x3f867556	1.0504558
16	0x3f892980	1.071579
17	0x3f8d35a0	1.103199
18	0x3f4bc17d	0.79592115
19	0x3f819169	1.0122501
20	0x3f822e33	1.0170349
21	0x3f82e87c	1.0227199
22	0x3f85a330	1.0440426
23	0x3f84eeb3	1.0385345
24	0x3f8a1429	1.0787402
25	0x3f825e69	1.0185062
26	0x3f7e5121	0.9934254
27	0x3f7b76eb	0.9822833
28	0x3f7fdaaf	0.9994306
29	0x3f85b219	1.0444976
30	0x3f8996d6	1.0749156
31	0x3f86830e	1.0508745
32	0x3f8d99f7	1.1062611
33	0x3f8b6868	1.0891237
34	0x3f837b88	1.0272074
35	0x3f238975	0.6388162
36	0x3f857472	1.0426161
37	0x3f7d5ca0	0.9896946
38	0x3f87bc48	1.0604334
39	0x3f8a786e	1.0818002
40	0x3f820c14	1.0159936
41	0x3f6bfd9a	0.9218384
42	0x3f2667c5	0.6500209
43	0x3f83e93c	1.0305552
44	0x3f80f3cf	1.0074404
45	0x3f7fc723	0.99913234
46	0x3f80a166	1.0049255
47	0x3f7ace8a	0.97971404
48	0x3f78eddb	0.9723794
49	0x3f866c55	1.050181
50	0x3f855f11	1.0419637
51	0x3f7b0d00	0.9806671
52	0x3f830568	1.0236025
53	0x3f78fbbd	0.9725912
54	0x3f84a7c8	1.0363703
55	0x3f854df0	1.041441
56	0x3f7b6d56	0.9821371
57	0x3f5f9944	0.8734324
58	0x3f7ce165	0.98781425
59	0x3f7c7ddd	0.9862955
60	0x3f3ac2e7	0.7295365
61	0x3f889a8b	1.0672163
62	0x3f7b9771	0.98277956
63	0x3f8688d2	1.0510504

net.4.bias f4 [64]
0	0x3d30258f	0.04300457
1	0xbd0f7d9a	-0.035031892
2	0xbd9e199b	-0.077197276
3	0xbd1bbda5	-0.038022656
4	0xbd7d3d9a	-0.061826326
5	0xbca859b5	-0.020550588
6	0x3c8c2565	0.017107675
7	0xbe2a488d	-0.16629238
8	0xbdf4de58	-0.11956471
9	0xbdfd7b14	-0.12376991
10	0xbcb73599	-0.022364425
11	0xbcc9108e	-0.024544027
12	0xbe3ecd40	-0.18632984
13	0xbcad4cd3	-0.021154797
14	0xbd9226dc	-0.07136318
15	0xbdc26205	-0.09491352
16	0xbdc38f41	-0.09548808
17	0xbdc33745	-0.09532026
18	0xbdbc8247	-0.09204536
19	0xbe137666	-0.14400634
20	0xbdf8d1d6	-0.12149398
21	0xbdd836fa	-0.10557361
22	0xbe176a2c	-0.14786595
23	0xbac1523d	-0.001474924
24	0x3cab826b	0.020936212
25	0xbd439b6a	-0.047755636
26	0xbe020d55	-0.12700398
27	0xbda4c8e9	-0.08046133
28	0xbd7047c0	-0.058662176
29	0xbe1a6122	-0.15076116
30	0x3d46e872	0.04856152
31	0x3b0cbe79	0.0021475835
32	0xbd74da9d	-0.0597788
33	0xbc3b3d87	-0.0114282435
34	0xbb270382	-0.0025484269
35	0xbdc378c0	-0.095445156
36	0xbe302236	-0.1720055
37	0x3d616b30	0.055033863
38	0xbd1f0267	-0.03882065
39	0xbcd9d801	-0.026592257
40	0x3cd18da0	0.025580227
41	0xbe07a6bb	-0.13247196
42	0xbdf8b9e5	-0.121448316
43	0xbd94a210	-0.072574735
44	0xbd80eb33	-0.06294861
45	0xbccbf983	-0.02489925
46	0xbcefa5bf	-0.029253839
47	0x3de5fbd4	0.11229673
48	0xbe1f20c1	-0.15539838
49	0xbe062ecf	-0.13103794
50	0x3cb63134	0.022240259
51	0xbe20655b	-0.15663664
52	0xbe01f0c5	-0.12689503
53	0xbe18d022	-0.14923146
54	0x3da281c0	0.07934904
55	0xbd5de088	-0.054169208
56	0xbd86cdb9	-0.06582207
57	0xbe15def7	-0.14635836
58	0xbe04deb7	-0.12975584
59	0xbe28d2d7	-0.16486679
60	0xbd8228d5	-0.06355444
61	0xbc8c3b19	-0.017118024
62	0xbe427014	-0.18988067
63	0xbe129d15	-0.14317735

net.4.running_mean f4 [64]
0	0xbf598c30	-0.84979534
1	0xbfb87f6b	-1.4413885
2	0xbf4f13bc	-0.8088949
3	0xbfa1f3ef	-1.2652568
4	0xbf53682b	-0.8258082
5	0xbf164bd0	-0.5870943
6	0xbf2f9570	-0.685874
7	0xbf2fc671	-0.6866217
8	0xbf89cc6c	-1.076551
9	0xbf10c339	-0.56547886
10	0xbf572018	-0.84033346
11	0xbfbb36a8	-1.4626055
12	0xbf510d97	-0.8166136
13	0xbef18eeb	-0.4717935
14	0xbf4a4143	-0.7900583
15	0xbfe226cf	-1.7668093
16	0xbfa33f8f	-1.2753772
17	0xbf2c5672	-0.67319405
18	0x3f336b21	0.7008534
19	0xbfcac19d	-1.5840336
20	0xbf8c1704	-1.0944524
21	0xbf660886	-0.89856756
22	0xbf76bba7	-0.96380085
23	0xbf77ff6e	-0.9687413
24	0xbf4b142c	-0.79327655
25	0xbefae9f5	-0.4900662
26	0xbfa85740	-1.3151627
27	0xbf21e119	-0.63234097
28	0xbf76b0dc	-0.96363616
29	0xbf19a102	-0.60011303
30	0xbfab48ab	-1.3381552
31	0xbedcac9a	-0.43100435
32	0xbf4f6696	-0.8101591
33	0xbf9adc66	-1.209851
34	0xbf354571	-0.70809084
35	0x3f8c5691	1.0963918
36	0xbf4e8807	-0.8067631
37	0xbe69ef67	-0.22845231
38	0xbfa3791c	-1.2771335
39	0xbf6b7766	-0.9197906
40	0xbf40e617	-0.7535109
41	0xbf014c02	-0.50506604
42	0x3f875fc9	1.0576106
43	0xbf0eb5b8	-0.5574603
44	0xbf8c9e62	-1.0985835
45	0xbfb23881	-1.3923494
46	0xbf950608	-1.1642466
47	0xbf060551	-0.5235186
48	0xbfc1d63a	-1.5143502
49	0xbf58deff	-0.84715265
50	0xbf5854a0	-0.8450413
51	0xbf60e8d2	-0.87855256
52	0xbf8c94c4	-1.09829
53	0xbef19a3f	-0.47187993
54	0xbf52bb7e	-0.8231734
55	0xbf24c083	-0.6435625
56	0xbf2fc597	-0.68660873
57	0xbfbca1f7	-1.4736928
58	0xbec71e61	-0.38890365
59	0xbfc5ab3e	-1.5442884
60	0x3eb4706e	0.35242027
61	0xbf57e301	-0.84330755
62	0xbf070637	-0.5274386
63	0xbf938575	-1.1525103

net.4.running_var f4 [64]
0	0x400f4e1d	2.2391427
1	0x401f709c	2.4912481
2	0x3fc7abe8	1.5599337
3	0x40c1a5f6	6.051509
4	0x3fcfd07b	1.6235498
5	0x3fa70d3b	1.3050913
6	0x3f18efe1	0.59741026
7	0x4005ba4a	2.0894952
8	0x4092e4d6	4.590434
9	0x3fa24ba7	1.2679337
10	0x402005b2	2.5003476
11	0x4084b42d	4.146994
12	0x3f950f2b	1.1645254
13	0x3fe66b9f	1.8001593
14	0x3f8409e3	1.0315517
15	0x4018906b	2.3838146
16	0x404ce8bf	3.2017057
17	0x3f10efd4	0.5661595
18	0x403a8d56	2.9148765
19	0x407a2a43	3.9088295
20	0x3fb61361	1.4224664
21	0x400968f3	2.1470306
22	0x3fb1844b	1.3868498
23	0x403ff178	2.999113
24	0x3ff39a44	1.9031453
25	0x3f8cf220	1.1011391
26	0x3ffde271	1.983473
27	0x4040b641	3.011124
28	0x4066426e	3.5978045
29	0x400489d2	2.070912
30	0x3fd12fdc	1.634273
31	0x3fcfc25e	1.6231191
32	0x4030338c	2.7531462
33	0x3fe09562	1.7545588
34	0x4047963a	3.118544
35	0x40f8a007	7.7695346
36	0x3f307a13	0.6893627
37	0x4088f0d0	4.279396
38	0x4038af7f	2.8857114
39	0x402ec88e	2.730991
40	0x403423e9	2.8146918
41	0x405415a9	3.313822
42	0x40aad399	5.33833
43	0x3ff1437d	1.8848721
44	0x40973458	4.7251396
45	0x406384fc	3.5549917
46	0x40971462	4.721238
47	0x405667a8	3.3500767
48	0x40863c69	4.1948743
49	0x3f49d67b	0.78842896
50	0x40056ddd	2.0848305
51	0x4020be26	2.5116057
52	0x3fe3a920	1.7785988
53	0x407cb133	3.9483154
54	0x40c7b603	6.240968
55	0x3fde0a8e	1.7346971
56	0x40410b24	3.016305
57	0x412e6904	10.900639
58	0x3f35a08e	0.7094811
59	0x4023e891	2.5610697
60	0x40459ac2	3.0875707
61	0x40a0b5a2	5.022172
62	0x3ff8d473	1.9439834
63	0x3f9a53db	1.2056841

net.7.weight f4 [128, 64, 3, 3]
0	0x3c184b40	0.009295285
1	0x3c83d514	0.016092815
2	0xbb838164	-0.0040132273
3	0xbd36514d	-0.04451113
4	0xbc3aadd9	-0.011393988
5	0xbc904706	-0.017611992
6	0xbda8f2cf	-0.08249437
7	0xbd9e3460	-0.077248335
8	0xbc78986a	-0.015173057
9	0xbd32be1b	-0.04363833
10	0xbd8b12fc	-0.0679073
11	0xbd46cf31	-0.048537437
12	0xbd93529f	-0.07193493
13	0xbd51d4ba	-0.051228262
14	0xbd3dfde8	-0.046384722
15	0x3c8b9c4e	0.017042305
16	0xbc23cd46	-0.0099976715
17	0x3b970361	0.004608557
18	0xbd11aa12	-0.035562582
19	0xbd835d4c	-0.06414279
20	0xbd340cb4	-0.043957427
21	0x3d609492	0.054829188
22	0x3ce4dc5e	0.02793711
23	0x3caacd67	0.020849897
24	0x3d2dd32f	0.04243773
25	0x3d2ff42b	0.042957466
26	0x3d2baf7d	0.041915406
27	0xbc2e265d	-0.010629264
28	0xbd17e65a	-0.037084915
29	0xbcfe43e5	-0.031038234
30	0xb90e4bfb	-0.0001357048
31	0x3ccb6ac6	0.024831187
32	0xbd47c5d8	-0.048772663
33	0x3cab3cac	0.020902954
34	0xbb01ec30	-0.0019824617
35	0x3c2a1d91	0.010383026
36	0x3d14b1ca	0.036302365
37	0x3d9e11d3	0.077182434
38	0x3d38491c	0.044991598
39	0xbb32e152	-0.0027294946
40	0xbd83e84a	-0.0644079
41	0xbcdb3785	-0.026759872
42	0xbd62cad0	-0.0553692
43	0xbd4c56fc	-0.049887642
44	0xba7455a3	-0.0009320622
45	0x3cfb09f3	0.030644393
46	0x3ce8364b	0.028346201
47	0x3bf8d879	0.007594165
48	0x3c1e5486	0.009663707
49	0xbae421f0	-0.0017405134
50	0x3b3c8571	0.002876606
51	0x3b4a10d9	0.0030832796
52	0x3d84e307	0.064886145
53	0x3d16d5d4	0.036825016
54	0xba3e1df3	-0.00072523876
55	0xbcebd846	-0.02878965
56	0xbd030e07	-0.0319958
57	0x3ccf5ed9	0.025313782
58	0x3d4d3d57	0.050107326
59	0x3d148221	0.036256913
60	0x3d29bc6e	0.041439466
61	0x3c8db341	0.017297389
62	0x3d61b0b9	0.055100176
63	0xba1d9c71	-0.00060123863
64	0xbd0b2c86	-0.033978008
65	0xbcacd3fc	-0.021097176
66	0xbbad15bc	-0.005282132
67	0xbd3792a7	-0.044817593
68	0xbcb7022d	-0.022339905
69	0xb832d9b0	-4.2641244e-05
70	0xbceb9a5f	-0.028760133
71	0xbcf558d3	-0.029949581
72	0xbd8c0dfb	-0.06838604
73	0xbce6d0d2	-0.028175745
74	0xbd92cdef	-0.07168185
75	0xbd29f37e	-0.041491978
76	0xbd06cb27	-0.032908585
77	0xbd61369f	-0.05498373
78	0xbaf8b17e	-0.0018973795
79	0x3bad7abc	0.005294172
80	0x3b08e372	0.002088752
81	0xbde030ad	-0.10946784
82	0xbdb5658a	-0.08857258
83	0xbd1f9015	-0.038955767
84	0xbcf89cc5	-0.030348191
85	0xbcddcc61	-0.027074995
86	0xbcb3ab0c	-0.021932147
87	0xbd619cfd	-0.055081356
88	0xbcba429c	-0.02273684
89	0xbd65f984	-0.05614616
90	0xbd684fb1	-0.056716625
91	0xbd3584ee	-0.044316225
92	0xbd8c857b	-0.06861397
93	0x3cf6fa41	0.030148627
94	0xbcc54410	-0.024080306
95	0x3c5b5da2	0.013389023
96	0x3d03cf9d	0.032180417
97	0x3db060c6	0.08612208
98	0x3d5a1da9	0.053250942
99	0x3d0d07d0	0.03443128
100	0xbbdfcf00	-0.0068300962
101	0x3d30a853	0.043129276
102	0x3d81b4e8	0.06333333
103	0x3d98c255	0.07458941
104	0x3ddbd7a7	0.10734492
105	0x3d7264ea	0.05917827
106	0x3c64d1d8	0.013966046
107	0x3d0aa5e1	0.0338496
108	0xbc86f791	-0.01647547
109	0x3c8b1bb7	0.016980989
110	0x3d084d24	0.033276692
111	0x3c4dacaf	0.012553378
112	0x3c9c2b65	0.01906366
113	0x3b6de995	0.0036302556
114	0xbdbfd3ea	-0.09366591
115	0xbd93c1e5	-0.07214717
116	0xbd1b5a73	-0.037928056
117	0x3dc1b54c	0.09458408
118	0x3da6b157	0.08139294
119	0x3d4a496d	0.04938643
120	0x3de51d29	0.111872025
121	0x3dad0150	0.08447516
122	0x3d90f377	0.07077687
123	0x3d23cc35	0.03998967
124	0x3cb9f3e6	0.022699308
125	0x3d458362	0.048221
126	0xbd34b706	-0.044119857
127	0xbc8bb875	-0.01705573
128	0xbc16dfcf	-0.009208634
129	0x3caae0f4	0.02085922
130	0x3d6f4e95	0.05842455
131	0x3c0c81dd	0.008575884
132	0x3d3bf359	0.04588637
133	0xbc575831	-0.013143585
134	0xbb11a8f9	-0.002222596
135	0xbd49f4f7	-0.049305882
136	0xbd55bd56	-0.052182518
137	0xbd8c5204	-0.06851581
138	0x3b290433	0.0025789856
139	0xbd2202bf	-0.0395534
140	0xbd50aee3	-0.050948035
141	0xbd41595d	-0.047204364
142	0xbd4f7b68	-0.0506548
143	0xbcc2a97c	-0.023762457
144	0x3d3babd8	0.04581818
145	0x3ce068d6	0.02739374
146	0x3d117881	0.035515312
147	0x3cf28b54	0.029607452
148	0x3cfca3bd	0.030839795
149	0x3d95aafc	0.07308003
150	0x3cf86592	0.03032187
151	0x3d900132	0.07031478
152	0x3da1c678	0.07899183
153	0x3cac7b56	0.021054905
154	0x3d1b75ee	0.037954263
155	0x3d27b485	0.04094364
156	0xbd055843	-0.032554876
157	0xbd84c4c8	-0.064828455
158	0xbc8bc3d6	-0.017061155
159	0x3dbd8d6d	0.092554905
160	0x3c88e29a	0.016709615
161	0x3d85dac9	0.065358706
162	0x3d1d99cf	0.03847676
163	0x3d231834	0.039818004
164	0x3d8827f4	0.066482455
165	0x3c474478	0.01216232
166	0x3cf40dd6	0.029791754
167	0x3a8ad11f	0.0010590887
168	0x3d483258	0.048876137
169	0x3d379406	0.0448189
170	0x3d0c46a4	0.034247056
171	0x3dda51ec	0.106601566
172	0x3da959c8	0.082690775
173	0x3dc9c09d	0.09851191
174	0x3c8999a0	0.016796887
175	0x3d957285	0.072972335
176	0x3d196600	0.03745079
177	0x3c9b6eab	0.018973669
178	0x3d762ae2	0.06009949
179	0x3d8cb1ac	0.06869826
180	0x3d80776c	0.06272778
181	0x3d9b143b	0.07572218
182	0x3dae5c8c	0.08513746
183	0xbb9b640a	-0.00474215
184	0x3c9b7b7d	0.018979782
185	0x3d3323ec	0.04373543
186	0x3d853195	0.06503598
187	0x3d4104db	0.04712377
188	0x3d31576f	0.043296274
189	0xb881879f	-6.176461e-05
190	0xbd2f056b	-0.042729776
191	0x3b18bd69	0.0023306257
192	0x3d98db99	0.0746376
193	0x3b20cc84	0.0024535963
194	0x3d3e5490	0.046467364
195	0x3d5308c1	0.05152202
196	0x3da65e43	0.08123448
197	0x3d935821	0.07194544
198	0x3cc79e2b	0.024367413
199	0x3cf9cf0e	0.03049424
200	0x3db0d49f	0.08634304
201	0x3e080bb5	0.13285716
202	0x3df6c357	0.12048977
203	0x3ddbf185	0.107394256
204	0xbc1e9b8d	-0.009680641
205	0xbc30b26d	-0.0107847275
206	0x3c353ad1	0.011061386
207	0x3c778707	0.015107877
208	0xbc96ff91	-0.01843241
209	0xbd809b04	-0.06279567
210	0xbd44921e	-0.04799091
211	0xbcfe79fa	-0.031064022
212	0xbd8e79b7	-0.06956809
213	0x3d08be80	0.0333848
214	0x3d401300	0.04689312
215	0x3bd71790	0.006564088
216	0xbc0e4fb3	-0.008685994
217	0xbd88c7ef	-0.06678759
218	0xbcbb6cee	-0.02287909
219	0xbdcae1d7	-0.09906357
220	0xbdf8c3c0	-0.12146711
221	0xbdec4ee3	-0.11538484
222	0xbdef8d73	-0.11696901
223	0xbdf6d930	-0.12053144
224	0xbe139182	-0.14410976
225	0xbcbdee34	-0.023184873
226	0xbd80fe23	-0.06298473
227	0xbce36a3c	-0.027760617
228	0xbccda821	-0.025104584
229	0xbd66366b	-0.05620424
230	0xbb7c571c	-0.003850407
231	0xbc943b8c	-0.0180948
232	0xbd3b4a46	-0.04572513
233	0xbcece9c1	-0.028920056
234	0x3db16af2	0.08662976
235	0x3da24a79	0.07924361
236	0x3d96340e	0.073341474
237	0x3dcf646b	0.10126575
238	0x3e1d3622	0.15352681
239	0x3dfc82e2	0.123296514
240	0x3e149c05	0.14512642
241	0x3e07dc91	0.13267733
242	0x3dd3244b	0.10309657
243	0x3d38d12d	0.04512136
244	0x3d23ca14	0.03998764
245	0x3c3f2964	0.011667583
246	0x3bd78a9e	0.0065778038
247	0x3c907d7e	0.017637964
248	0x3d2dbbe8	0.04241553
249	0x3dba23d8	0.09088868
250	0x3d131cc0	0.03591609
251	0x3d6f00b9	0.0583503
252	0xbd429ac5	-0.04751088
253	0xbd9d4e7b	-0.076809846
254	0xbcac2e35	-0.021018127
255	0x3c493b2a	0.012282172

net.7.bias f4 [128]
0	0xbc23d398	-0.009999178
1	0xbb6c7ebb	-0.003608628
2	0x3d86b24d	0.06576977
3	0xbdcaa93d	-0.09895561
4	0x3dc2d26b	0.0951279
5	0x3ca4c275	0.020112256
6	0xbcc1f61d	-0.023676926
7	0x3d3fae7e	0.046797268
8	0x3d05fca7	0.03271165
9	0x3d943c4e	0.07238065
10	0x3cdfa45a	0.027300049
11	0xbcf9bf35	-0.030486682
12	0xbcc95991	-0.024578841
13	0x3cf2b9b6	0.02962957
14	0x3c169802	0.009191515
15	0x3c804e6d	0.015662396
16	0xbb80ac7b	-0.0039268113
17	0xbcfc7613	-0.03081802
18	0x3dcefa62	0.101063505
19	0x3db27f55	0.08715693
20	0xbdade60b	-0.08491143
21	0x3ad1a7e7	0.0015995473
22	0xbc9871f1	-0.018609019
23	0x3b0fc175	0.0021935378
24	0x3d0d522e	0.0345022
25	0xbc7d1097	-0.01544585
26	0xbd988ce0	-0.07448745
27	0x3c631839	0.013860756
28	0xbcee1e96	-0.029067319
29	0x3d559d54	0.052151993
30	0xbad94bfa	-0.0016578429
31	0xbcf1526b	-0.029458245
32	0x39e4715a	0.00043572002
33	0x3dd2ddec	0.102962345
34	0x3ce34a44	0.027745374
35	0x3b8d4a05	0.0043118023
36	0x3d1b6946	0.037942193
37	0xbabc69ea	-0.0014374827
38	0x3c9e1934	0.019299127
39	0x3dc57067	0.0964058
40	0xbcffd023	-0.031227177
41	0x3d333e2d	0.043760467
42	0x3ccd65f3	0.025073027
43	0xbce26138	-0.027634248
44	0x3cf331b7	0.029686792
45	0x3d797bd5	0.06090911
46	0xbd101549	-0.03517655
47	0x3d12f317	0.03587636
48	0x3ce385c6	0.02777375
49	0xbda16533	-0.0788063
50	0xbd54db0a	-0.051966704
51	0xbbd9e1a6	-0.006649214
52	0x3dae37fd	0.08506773
53	0x3de58e09	0.11208732
54	0x3df30b25	0.1186736
55	0x3b56f472	0.003279951
56	0xbbd73bf6	-0.006568427
57	0x3cea9781	0.028636696
58	0xbd81b812	-0.06333937
59	0xbc80b3b4	-0.01571069
60	0x3d11fa50	0.035639107
61	0xbdb492ab	-0.08817037
62	0x3d2ed782	0.042685993
63	0x3d26dfcd	0.040740777
64	0xbd046bfd	-0.03232955
65	0xbcf5685e	-0.029956993
66	0x3cacdf4c	0.02110257
67	0x3c5c7e28	0.013457812
68	0x3cf0d39c	0.029397778
69	0xbd12d618	-0.035848707
70	0xbd2efa07	-0.042718913
71	0x3c07e5b1	0.008294509
72	0x3d28a439	0.04117224
73	0xbbdc15be	-0.006716459
74	0x3c3c1868	0.011480428
75	0xbc569f9f	-0.01309958
76	0xbc830e3e	-0.015998002
77	0x3c8295dd	0.015940601
78	0xbb0ac78c	-0.0021176068
79	0x3d595827	0.053062584
80	0xbc525812	-0.01283838
81	0xbd87eb20	-0.066366434
82	0x3d2767fc	0.04087065
83	0xbd2417b1	-0.040061656
84	0x3dac7a7c	0.084217995
85	0xbc18dd37	-0.0093300855
86	0x3c2ef4d0	0.010678485
87	0x3c77fdf7	0.0151362335
88	0xbc1dc212	-0.0096287895
89	0xbab02f95	-0.0013441915
90	0x3c98e6a6	0.01866467
91	0xbcf08572	-0.029360507
92	0xbcba3a84	-0.02273298
93	0xbc201cad	-0.009772462
94	0xbbaacb50	-0.005212225
95	0xbdcba148	-0.09942871
96	0xbc66cb42	-0.014086546
97	0x3cbc43a5	0.022981474
98	0xbc9d5ab4	-0.01920829
99	0xbd53c768	-0.05170384
100	0xbb032d7f	-0.0020016131
101	0x3c96a1b2	0.01838765
102	0xbd0a4281	-0.03375483
103	0xbbc9fb66	-0.006164002
104	0xbd036b9a	-0.03208504
105	0x3c2b5091	0.01045622
106	0x3c1d55a3	0.009602937
107	0xbccb8a6d	-0.02484628
108	0x3cd12356	0.025529545
109	0x3d9194cd	0.071084596
110	0xbcdbf79b	-0.026851466
111	0xbd6ce01b	-0.05783091
112	0x3c51eb4e	0.012812449
113	0xbc4a9f3b	-0.012367065
114	0x3d2244f2	0.039616533
115	0x3c73a946	0.014871901
116	0x3ccc3223	0.02492625
117	0x3d41da97	0.047327604
118	0xbd310820	-0.04322064
119	0x3b10a396	0.002207016
120	0xbd0480a4	-0.032349244
121	0x3d4adcc7	0.049526956
122	0xbdf37b2f	-0.1188873
123	0xbdbf72e0	-0.093480825
124	0x3c8fee7a	0.01756977
125	0xbcd0f154	-0.0255057
126	0xbce0a6a6	-0.027423214
127	0xbd335ffe	-0.043792717

net.8.weight f4 [128]
0	0x3f98986e	1.1921518
1	0x3f99bb5e	1.2010305
2	0x3fa46d79	1.2845908
3	0x3f999267	1.1997803
4	0x3fa12eed	1.2592446
5	0x3faa2e56	1.3295391
6	0x3f96c325	1.1778303
7	0x3f9cba2b	1.2244314
8	0x3f974206	1.1817024
9	0x3f9a5932	1.205847
10	0x3f9ed174	1.240767
11	0x3f99a47a	1.2003319
12	0x3f9fa84a	1.2473233
13	0x3f9d3661	1.228222
14	0x3f955bec	1.1668677
15	0x3f9b89ab	1.2151388
16	0x3f934f52	1.1508582
17	0x3fa42b65	1.2825743
18	0x3fa53b00	1.290863
19	0x3f9d6944	1.229775
20	0x3f97e11d	1.1865574
21	0x3f98a22b	1.192449
22	0x3f99436c	1.19737
23	0x3f97439f	1.1817511
24	0x3f9e45fe	1.236511
25	0x3f9bbb21	1.2166482
26	0x3fa04b4e	1.2522981
27	0x3f9ae286	1.210038
28	0x3f9bd22d	1.2173516
29	0x3fa13d4a	1.2596829
30	0x3f9d167a	1.2272484
31	0x3f9cacc6	1.2240226
32	0x3f9f3593	1.2438225
33	0x3f95d166	1.1704528
34	0x3f984e40	1.189888
35	0x3f981bf9	1.1883537
36	0x3f9789c6	1.183892
37	0x3f9637c2	1.1735766
38	0x3f983c6b	1.1893438
39	0x3fa0d095	1.2563654
40	0x3f9cfc73	1.2264541
41	0x3f9ed43e	1.2408521
42	0x3f96eee4	1.1791654
43	0x3f925d20	1.143467
44	0x3f96c586	1.1779029
45	0x3fa24876	1.2678363
46	0x3f9d4fd2	1.2289984
47	0x3f951d3d	1.1649548
48	0x3fa2fd76	1.27336
49	0x3f9bd669	1.2174808
50	0x3f9c1b3f	1.2195815
51	0x3f9f800b	1.2460951
52	0x3f9d9cf2	1.2313521
53	0x3f9f827b	1.2461694
54	0x3f9d9eb3	1.2314056
55	0x3fa38b6a	1.2776921
56	0x3f979ec0	1.1845322
57	0x3f990e2a	1.1957448
58	0x3f954d1d	1.1664158
59	0x3f918f10	1.1371784
60	0x3f921830	1.1413631
61	0x3f972257	1.1807355
62	0x3f9af67e	1.2106473
63	0x3f94ca33	1.1624206
64	0x3f9946ec	1.1974769
65	0x3f9c4d45	1.2211081
66	0x3f9ad5bb	1.2096475
67	0x3fa85116	1.3149745
68	0x3f9876a6	1.1911209
69	0x3f9a1de2	1.204037
70	0x3f9f1133	1.2427124
71	0x3f92c811	1.1467305
72	0x3f9b9d8e	1.2157457
73	0x3fa343f6	1.2755115
74	0x3f9d50e4	1.2290311
75	0x3f975d46	1.182534
76	0x3f9aa841	1.2082597
77	0x3f985e61	1.1903802
78	0x3f9db379	1.2320396
79	0x3f9cb3e8	1.2242403
80	0x3f97da8a	1.1863568
81	0x3f9eda35	1.2410342
82	0x3fa22f53	1.2670692
83	0x3f9b4970	1.2131786
84	0x3f9b06a1	1.2111398
85	0x3f9b9f8f	1.2158068
86	0x3f947283	1.1597446
87	0x3fa252e9	1.2681552
88	0x3f97321a	1.1812165
89	0x3f91dd53	1.1395668
90	0x3f972a7d	1.1809841
91	0x3fa080fd	1.2539364
92	0x3f9428d2	1.1574957
93	0x3f9c13f1	1.2193586
94	0x3f9a24d0	1.2042484
95	0x3f9db16f	1.2319773
96	0x3f9a68e9	1.2063266
97	0x3f99eb8c	1.2025008
98	0x3f98e62d	1.1945244
99	0x3f9ba4df	1.215969
100	0x3f95baaf	1.1697596
101	0x3f97ab33	1.1849121
102	0x3f987447	1.1910485
103	0x3f9800dc	1.1875262
104	0x3f9d53ea	1.2291234
105	0x3f9a6ad1	1.2063848
106	0x3f965988	1.1746073
107	0x3fa213d6	1.2662303
108	0x3f975ec7	1.1825799
109	0x3fa0cf0b	1.2563184
110	0x3f9beac0	1.2181015
111	0x3f96d1bc	1.1782756
112	0x3fa17d7d	1.2616421
113	0x3f97db60	1.1863823
114	0x3f9cd735	1.2253176
115	0x3f9c0619	1.2189361
116	0x3f98a1bf	1.1924361
117	0x3f9c33a0	1.2203255
118	0x3f9875bf	1.1910933
119	0x3f9dd24a	1.23298
120	0x3f9c0d03	1.2191471
121	0x3f9a24ab	1.204244
122	0x3f9b9159	1.2153732
123	0x3f982b09	1.1888133
124	0x3f9a72d1	1.2066289
125	0x3f956a19	1.1673003
126	0x3f9b932a	1.2154286
127	0x3f9a5e36	1.2060001

net.8.bias f4 [128]
0	0xbbfeae74	-0.0077722613
1	0x3a383d84	0.00070282095
2	0x3c7538cc	0.014967155
3	0xbc116098	-0.008873127
4	0x3c4b3cba	0.012404615
5	0x3da0b1df	0.07846426
6	0x3bc5cfb5	0.0060367235
7	0x3d1741a8	0.03692785
8	0xbd1e2cc8	-0.038616925
9	0xba2fbe91	-0.0006704117
10	0xbb7fa858	-0.0039010253
11	0xbcf4ec43	-0.029897815
12	0x3caadf05	0.020858297
13	0x3d32555a	0.04353843
14	0x3c6e4ba3	0.0145444
15	0x39e16015	0.0004298693
16	0xbb430acf	-0.002976108
17	0x3da5c50f	0.080942266
18	0x3d275064	0.04084815
19	0x3c941e59	0.018080877
20	0xba8eed00	-0.0010904372
21	0xbd593c14	-0.05303581
22	0x3c1301e8	0.008972622
23	0x3ce8dabf	0.028424619
24	0xbd76e4e3	-0.060276877
25	0x3cb69c3c	0.022291295
26	0x3d6cdb5f	0.057826396
27	0x3b4017de	0.00293111
28	0x3d447e68	0.047972113
29	0x3c91128a	0.017709035
30	0x3d406bb7	0.046977725
31	0xbb5842f1	-0.0032998885
32	0x3d2eb84b	0.042656224
33	0x3c77609a	0.015098715
34	0xbca80e95	-0.020514766
35	0x3c9b1706	0.018931877
36	0x3cec7599	0.028864669
37	0xbbac2914	-0.0052539203
38	0xbb54f807	-0.0032496469
39	0x3cee064c	0.029055737
40	0x3c9ef910	0.019405872
41	0xbce418c3	-0.027843839
42	0xbc95212d	-0.018204296
43	0x3cf90e6a	0.030402381
44	0x3c8f6cb0	0.01750788
45	0x3c64ab90	0.013956919
46	0x3d81aef1	0.063321956
47	0xbca0290c	-0.019550823
48	0x3b199e09	0.0023440144
49	0x3d531059	0.051529262
50	0x3c59ad87	0.013286001
51	0x3d9df472	0.0771264
52	0x3d51ff00	0.051268578
53	0x3cb7aafa	0.022420395
54	0x3c24c778	0.010057323
55	0xbbfbd656	-0.007685463
56	0xb8c4ce64	-9.3844516e-05
57	0xbc3c4c96	-0.011492869
58	0x3c23e700	0.010003805
59	0xbc8bce61	-0.017066183
60	0xbd22893a	-0.03968165
61	0x3cecaa66	0.028889846
62	0x3b088158	0.0020829048
63	0xbc47d54e	-0.012196852
64	0x3c9b4726	0.018954825
65	0x3c691b99	0.014227771
66	0xbcc5f871	-0.024166318
67	0x3d046741	0.032325033
68	0xbba877ed	-0.0051412494
69	0xbb71d1b1	-0.0036898667
70	0xbc8d45cf	-0.017245201
71	0x3c76c150	0.015060738
72	0xbc98bb4a	-0.018643994
73	0x3c96bd9a	0.018400956
74	0x3c1ac048	0.0094452575
75	0x3d39a87e	0.045326702
76	0x3cc53586	0.024073374
77	0x3d2b1e0d	0.041776706
78	0xbd919110	-0.071077466
79	0x3c928a89	0.017888324
80	0x3ca94c7c	0.020666353
81	0x3c907c0d	0.017637277
82	0x3d0e331c	0.03471671
83	0x3c0938fa	0.008375401
84	0x3d076f52	0.033065148
85	0x3caefb87	0.021360172
86	0xba66a9e8	-0.0008799122
87	0x3d4381f2	0.047731347
88	0xbc81d333	-0.015847778
89	0x3b9b2a9a	0.004735303
90	0xb9963388	-0.00028648623
91	0x3c256721	0.010095389
92	0x3b08c05e	0.0020866613
93	0x3d34fac7	0.044184472
94	0xbb3db980	-0.0028949678
95	0x3d4562d3	0.04818995
96	0x3d145cdf	0.03622138
97	0xbc9caaf2	-0.019124482
98	0x3a922f8d	0.0011153087
99	0x3d356099	0.044281576
100	0x39f9ba43	0.00047631757
101	0xbd09bca0	-0.033627152
102	0xbcfdfab4	-0.031003334
103	0x3c1dae54	0.009624083
104	0xbd00fba1	-0.031489972
105	0xbb419bc7	-0.0029542313
106	0xbbae80c4	-0.0053254087
107	0x3d9d6d1a	0.07686825
108	0x3b85254f	0.0040632854
109	0x3d11a987	0.035562064
110	0x3c65e1aa	0.014030853
111	0x3c6b296c	0.014353137
112	0x3ce8e83a	0.028431047
113	0xbcce8fb0	-0.025215
114	0x3c7602c4	0.015015308
115	0x3cd6f03a	0.026237596
116	0x3d26c2d0	0.04071313
117	0xb9932626	-0.00028066448
118	0xbb1ee192	-0.0024243337
119	0xbc8ee106	-0.017441284
120	0x3d002553	0.031285595
121	0x3d2bcb51	0.041941945
122	0x3b707d1f	0.0036695672
123	0x3c3bdc29	0.0114660645
124	0x3cd63eb9	0.026152955
125	0xbd1dcb92	-0.038524218
126	0x3c767923	0.01504353
127	0x3d3ac013	0.045593332

net.8.running_mean f4 [128]
0	0xbeaa6b4d	-0.3328499
1	0xbfd9fac1	-1.7029649
2	0x3f6c0566	0.9219574
3	0xbf20f425	-0.62872535
4	0x3f3b9cc6	0.7328609
5	0xbf761c0d	-0.9613655
6	0xbf6a29f5	-0.9147027
7	0x3fa5193c	1.2898326
8	0xbf1d4d28	-0.61445856
9	0x3fb7858e	1.4337633
10	0x3f636a59	0.8883415
11	0xbf8a4150	-1.0801182
12	0x3fb82759	1.4387008
13	0x3f0a3568	0.5398774
14	0xbf1aa7e2	-0.6041242
15	0x3f80bf77	1.005843
16	0xbf9926ff	-1.1965026
17	0xbf80f9de	-1.0076253
18	0x3fad09f4	1.3518662
19	0x3f875a07	1.0574349
20	0xc0100f7f	-2.2509458
21	0xbf80ee18	-1.007266
22	0x3f171863	0.59021586
23	0xbdbf6fc7	-0.09347492
24	0xbf3365fd	-0.70077497
25	0x3eb85e7a	0.3600958
26	0xbe4d0be8	-0.20024073
27	0xbf21c51f	-0.6319141
28	0xbe9c3759	-0.30510977
29	0x3ed2eb81	0.411953
30	0x3f32ef2e	0.6989621
31	0x3f9d5208	1.2290659
32	0xbeb6b727	-0.3568661
33	0x3edd27b0	0.43194342
34	0xbf57404f	-0.840825
35	0xbf987780	-1.1911469
36	0x3f2a3b6a	0.6649691
37	0xbece7c94	-0.4032942
38	0x3f9435ce	1.157892
39	0x3f6a072a	0.9141718
40	0xbf35a9c7	-0.70962185
41	0x3ec909ab	0.3926519
42	0x3e934949	0.2876685
43	0xbe8c566b	-0.27409682
44	0x3f9abc6e	1.2088754
45	0x3f8b3c0f	1.0877703
46	0x3e4f3803	0.2023621
47	0xbfd06ccb	-1.6283201
48	0xbdda704c	-0.1066595
49	0xbe574b3c	-0.21024793
50	0xbf313add	-0.69230443
51	0x3e52d4ad	0.20588942
52	0x3f8f5358	1.119731
53	0x3f0eb4cd	0.5574463
54	0x3fa0a73d	1.2551037
55	0xbf21b238	-0.63162565
56	0xbe58be75	-0.21166404
57	0xbeccc08f	-0.3999066
58	0x3f831029	1.0239307
59	0x3e909849	0.28241184
60	0x3ebc6242	0.36793715
61	0xbf45e6bc	-0.773052
62	0xbe86d662	-0.26335436
63	0xbf256520	-0.6460743
64	0xbde05f89	-0.10955722
65	0xbf3cd4d9	-0.7376228
66	0x3f26e662	0.65195286
67	0x3f36aca5	0.71357185
68	0x3e67d22e	0.22638771
69	0xbf351b0b	-0.7074439
70	0xbeb8af3d	-0.36071196
71	0xbf7e65da	-0.99374163
72	0x3d611b44	0.054957643
73	0xbe734a4a	-0.23758808
74	0x3fae4d69	1.3617374
75	0xbf80bad9	-1.0057021
76	0x3e9d0de6	0.30674666
77	0xbf434641	-0.76279074
78	0xbf6a6d8d	-0.9157341
79	0xbf479e6c	-0.7797611
80	0x3dc0a581	0.09406567
81	0xbf18e6fd	-0.5972746
82	0x3edee4ce	0.4353394
83	0xbf4b58ae	-0.7943219
84	0x3f985f48	1.1904078
85	0xbf4288ae	-0.75989807
86	0xbf7fff57	-0.9999899
87	0x3f146aea	0.5797564
88	0xbf91e710	-1.139864
89	0x3f006de8	0.50167704
90	0xbf098aa5	-0.5372718
91	0xbf8e11fa	-1.1099236
92	0x3eb785b1	0.35844186
93	0xbd925ae2	-0.07146241
94	0x3ee4c249	0.44679478
95	0xbf36d970	-0.71425533
96	0x3d168cbb	0.036755305
97	0x3f9ce8e0	1.2258568
98	0xbe142bd9	-0.14469852
99	0xbed3206d	-0.41235676
100	0x3e3c31f9	0.18378438
101	0xbf235870	-0.6380682
102	0xbf01f131	-0.50758654
103	0xbf27d97d	-0.65566236
104	0x3e5d0029	0.21582092
105	0x3f97cc33	1.1859192
106	0x3e854e52	0.26036316
107	0xbd39c1c7	-0.045350816
108	0x3f1377c5	0.5760463
109	0x3dd62bdf	0.104575865
110	0xbde11427	-0.10990172
111	0xbf938bb5	-1.152701
112	0x3e5c368c	0.21505183
113	0xbfc67fa2	-1.55077
114	0x3f1d9064	0.6154845
115	0x3eee3a84	0.4652902
116	0x3eccd26b	0.40004286
117	0xbf8c760b	-1.0973524
118	0xbf008f4b	-0.5021865
119	0xbf290d2c	-0.66035724
120	0xbfa0ac8e	-1.255266
121	0xbe65b6d3	-0.22433023
122	0xbf816406	-1.010865
123	0xbf14c463	-0.5811216
124	0x3f40b5bb	0.752773
125	0xbf327921	-0.6971608
126	0x3f21b874	0.6317208
127	0xbee081a7	-0.43848917

net.8.running_var f4 [128]
0	0x3e21a42c	0.15785283
1	0x3e8f9bff	0.28048703
2	0x3e963055	0.2933375
3	0x3e30777a	0.17233077
4	0x3e1adee4	0.15124089
5	0x3e81de7b	0.25365052
6	0x3e4115e3	0.18856005
7	0x3e784802	0.24246219
8	0x3e472525	0.19447763
9	0x3e5b439c	0.2141251
10	0x3e29869a	0.16555253
11	0x3e4b785b	0.1987013
12	0x3e93067d	0.28715888
13	0x3e6e97f0	0.23300147
14	0x3e4c23f0	0.19935584
15	0x3e23ad9e	0.15984198
16	0x3e7c915b	0.24664824
17	0x3e27b8e8	0.1637913
18	0x3e670673	0.22561054
19	0x3e5b5d9a	0.21422425
20	0x3ea06400	0.31326294
21	0x3e77e693	0.24209051
22	0x3e75c6d4	0.24001628
23	0x3e205721	0.15658237
24	0x3e49e50f	0.19716285
25	0x3e521f0b	0.20519654
26	0x3e369615	0.17830689
27	0x3e3209c4	0.17386538
28	0x3e2a393b	0.16623394
29	0x3e5ee074	0.2176531
30	0x3ea481d9	0.32130316
31	0x3e35bfc4	0.17748934
32	0x3e2812ea	0.16413465
33	0x3e9a012a	0.30079013
34	0x3e3dbfb6	0.18530163
35	0x3e5dfb8c	0.21677989
36	0x3e75a866	0.2399002
37	0x3e25b731	0.16183163
38	0x3e39fe02	0.18163303
39	0x3e98f7a2	0.2987643
40	0x3e197164	0.14984661
41	0x3e2e7a9e	0.17038962
42	0x3e3ad43a	0.1824502
43	0x3e7091fd	0.2349319
44	0x3ecaaaac	0.39583337
45	0x3e8d7f14	0.27636015
46	0x3eac01cf	0.3359513
47	0x3e963a07	0.29341146
48	0x3e525d30	0.2054336
49	0x3ec59747	0.38591978
50	0x3e152427	0.14564572
51	0x3e981ed5	0.29711023
52	0x3e8e79dc	0.27827346
53	0x3e52cbc7	0.20585547
54	0x3e29d907	0.16586696
55	0x3e8c7bc7	0.27438185
56	0x3e43ab66	0.19108352
57	0x3e383549	0.17989077
58	0x3e3e6c0f	0.18595909
59	0x3e93878f	0.2881436
60	0x3e2a3a7f	0.16623877
61	0x3e507192	0.20355824
62	0x3e327afd	0.17429729
63	0x3e603d5c	0.21898407
64	0x3e8ec6c1	0.27886012
65	0x3e1feecc	0.15618438
66	0x3e370f87	0.17877017
67	0x3de161dc	0.11004993
68	0x3e2d3123	0.16913275
69	0x3e3635b9	0.17793931
70	0x3e440110	0.1914103
71	0x3e40d3f2	0.1883085
72	0x3e7d5b1c	0.24741787
73	0x3e3c4471	0.18385483
74	0x3e386080	0.18005562
75	0x3e827b71	0.25484803
76	0x3e94db4e	0.29073566
77	0x3e111a07	0.14170085
78	0x3e4be2cd	0.19910736
79	0x3e59c346	0.21265897
80	0x3ebe401b	0.37158284
81	0x3e433d97	0.19066463
82	0x3e89cde4	0.26914895
83	0x3e46b57f	0.19405173
84	0x3ead310b	0.3382648
85	0x3e2b498d	0.16727276
86	0x3e19f1bf	0.15033625
87	0x3e8260b9	0.2546442
88	0x3e4c3482	0.19941905
89	0x3ead40e4	0.3383857
90	0x3e811310	0.25209856
91	0x3e7a419b	0.24439089
92	0x3e9f6d0a	0.31137878
93	0x3e9339be	0.2875499
94	0x3e3d4e44	0.18486887
95	0x3e2a506b	0.1663224
96	0x3e1297a9	0.14315666
97	0x3e821771	0.2540851
98	0x3e6ce6de	0.23134944
99	0x3e2631cf	0.16229938
100	0x3e2ba824	0.1676336
101	0x3e4d06bd	0.20022102
102	0x3e3ffaaf	0.18747972
103	0x3e13dbaa	0.14439264
104	0x3e20d63d	0.15706725
105	0x3e6fe75c	0.234281
106	0x3e5a02ad	0.21290083
107	0x3e2d874a	0.1694614
108	0x3e633c47	0.22190963
109	0x3e5dca84	0.21659285
110	0x3df6d885	0.120530166
111	0x3e87c314	0.2651602
112	0x3e407ea5	0.18798311
113	0x3e8b477c	0.27202976
114	0x3e4154b4	0.18879968
115	0x3e474f03	0.19463734
116	0x3ead593d	0.33857146
117	0x3e4731c7	0.19452582
118	0x3e2c705e	0.1683974
119	0x3e2d4035	0.16919024
120	0x3e88d77b	0.267269
121	0x3e09712f	0.13422082
122	0x3e3c379c	0.18380588
123	0x3e2155dd	0.1575541
124	0x3e181f21	0.14855625
125	0x3e41b09e	0.1891503
126	0x3e2d3e83	0.16918378
127	0x3e9307d2	0.28716904
